model/lemon(background).lite (tflite, 244324 bytes, 6 tensors)

sequential/conv2d/BiasAdd/ReadVariableOp f4 [16]
00000000: 5124 493c 2ff8 f03c 9866 1c3b a8eb ddbc
00000010: 591c 063d ccef 6fbc a41f 86bb bffd c7bc
00000020: 427c 0e3d 48b0 d43c 0490 1e3d fcc0 803c
00000030: af36 2b3b e3d3 673c 1039 193c 957b 073d
0.012276725 0.029415218 0.0023864862 -0.027089909 0.03274188 -0.014644574 -0.0040931273 -0.024412988
0.03478647 0.025962964 0.038711563 0.015717022 0.0026125123 0.014149639 0.009351984 0.03307684

sequential/conv2d_1/BiasAdd/ReadVariableOp f4 [32]
00000000: 5971 db3b fcb4 50bb ca15 5238 cab7 543c
00000010: 7882 13bb b52d d03a 6a1f 9b3b 0239 b9bc
00000020: c1a2 733c b0a4 6a3c 2ebf 1bbc 30fc 603c
00000030: caa5 893c afe0 c6bb 899d 303c 840c 1b3c
00000040: 3fdf 3b3c c54b cdbc 52e2 e93c 3eb4 5ebb
00000050: ceef ddbc 85c1 283c d419 7dbc cf9f b8bc
00000060: d3c7 efbb 5794 5a3c c821 ceb9 3ebb aa3c
00000070: f820 6e3c 53b2 8b3c 3417 7d3d 5539 22bd
0.0066968617 -0.0031846156 5.0088194e-05 0.012983272 -0.0022508185 0.0015882762 0.0047339695 -0.022610191
0.0148703465 0.014321491 -0.00950603 0.013732001 0.016802687 -0.006069265 0.010779747 0.009463433
0.0114668 -0.025060544 0.0285503 -0.0033981944 -0.027091887 0.010300045 -0.015448052 -0.02253714
-0.007317522 0.013341031 -0.0003931655 0.020841237 0.014534228 0.017052805 0.061789706 -0.039605457

sequential/conv2d/Conv2D f4 [16, 3, 3, 3]
00000000: 7bc0 ba3a f5cd 21bc 0dfa 3cbe 5bed ec3d
00000010: 3591 01be 8a6c 443d 2520 1f3e b1c4 2dbe
00000020: d8fb d5bc 709e 22bd 8f85 553d 83aa 843d
00000030: fc74 c13d ad70 803b 52fe fd3c e043 22be
00000040: 854f 093d a197 c13d 87bb 123d 8ce1 bc3d
00000050: 024e 383d 886c 11be 7300 93bd c42c 383e
00000060: 9c8c 20bd 244c 183e 4aae 24be 3a6f 34be
00000070: e6cd e9bc 9c9b 3fbe e50f 1dbe cbe5 66bb
00000080: 2a0b 6bbd ec45 113e da43 3e3e 9af0 2fbe
00000090: 381c 473e 72af bb3d 40dd 933d e1e5 503d
000000a0: 4f46 1bbe b721 80bd 20cb 073d 713c 6ebd
000000b0: 8c27 5a3d 7408 d7bd d1ad 3b3c 3cb7 203e
000000c0: 7d92 f1bd 4ee4 96bc 00d5 103e 7a2e de3c
000000d0: 40ea a5bc 23dd dc3d 8d0b fa3d d2d7 36be
000000e0: 18bc 1fbe cd8b b13d f248 fbbd c358 a73d
000000f0: 646b bd3d c716 07be ddf3 e13d 7156 0a3e
00000100: ad36 203e fe08 04bb 7e3d 843d c832 25be
00000110: 5874 2ebc fe9b 05be 6020 38be cc57 3a3e
00000120: 3d1f bc3d 63fc 47bd 5afd 833d 2bd1 833c
00000130: 1747 9f3b e437 913d 9d5c 173e e0c7 283e
00000140: 73db b2bd 365e 23be 8de0 e6bb 66f7 2c3e
00000150: 12fb 243e cef0 223e ed99 11bb 49b2 15bd
00000160: d075 543d 88dc 493e 0f62 8a3d f9e5 b73d
00000170: dd65 143e 9bcd 693d 304c 243e 2a99 423e
00000180: a355 ac3d 8bf4 033e 85d8 c93d 4a5c a0bd
00000190: 47ea 3abe e711 06be be4e 41bc 8dc0 a63d
000001a0: cec1 363e b9bb 283e 6de2 f8bd 671f 72bd
000001b0: 421f 473e 29ec 67bc a5e7 d5bd 1988 423d
000001c0: 2677 96bc e6b5 0cbe dc45 0c3e 2eba ccbc
000001d0: edb2 d1bd 4283 87bd 9aa4 96bd 9510 1abe
000001e0: 46c6 edbd 365b 95bc c661 003e e509 8ebd
000001f0: ad98 babd 519f cf3d be4a b9bc f47b 66bd
00000200: c97f ed3d 0ced 373e 05e9 7dbd 92c2 2e3e
00000210: 43f6 a63d aa22 ea3b ef40 19bd b5b7 7dbd
00000220: f3c5 a0bc d166 ad3d a3b5 dfbd 7700 8cbc
00000230: 5b9c 92bd eed6 be3c ea2c 77bd e3a2 2cbe
00000240: 1447 53bc 2c4b acbd 0ca4 243e 3d90 fcbc
00000250: 9e30 e73c d6fe 07be ca7f 45be e75b f23c
00000260: b11a f03d 2055 4fbd 8585 053e 1dd1 36be
00000270: b792 9e3d d75b 0e3d f972 21be b8a0 02be
00000280: c44a 1ebe f5b0 a1bc a257 bf3d 29ec b2bc
00000290: b89b 27bd 27ef cdbd 5ab9 35be f744 e2bd
000002a0: 481a c8bd 3fd6 6e3c c972 a8bd 313b 253d
000002b0: d4bd 5abd cf68 5fbb 1327 7bbd 1b24 3a3e
000002c0: 41f3 753d bb53 a73b bcf2 ba3d 4cc0 03be
000002d0: a9ad 32be dfcb c5bd 17e2 81bd d8a2 e63d
000002e0: 989e dbbd ba83 dd3d 0393 323d 379c afbd
000002f0: 1b4e 2dbe 2ff3 053e 8c3e de3d 9800 1e3e
00000300: f551 13be a18d 32bd 84b3 323e 608c cc3d
00000310: 0cd7 4ebd 097c 28bc f7bf a1bd 7fcc 45bd
00000320: 6c3f 10be e99b f73d dec6 c43a 648a 3e3e
00000330: af82 95bd 564c 003e 2d7a 3e3c 6a4d a33d
00000340: 5c7d be3d d8c1 42bd 1318 c5bd d8fb 13be
00000350: 0d1b a53d 737f 00bb 65ed 263e 7589 b73d
00000360: 6d64 fe3d 0695 383d 2ad6 02bd e4ea 62bd
00000370: 22ee 70bd 7a4a 20be 6e7b f2bd 714c 633d
00000380: 9107 6cbd 7bfe 2bbe a039 77bc db94 db3d
00000390: 82e5 1c3b c841 2cbe e338 38be 760f f63d
000003a0: 8fa3 abbd 9b16 31bd b222 46bd 796a 113e
000003b0: d37a a43d 13a9 0c3e 91b1 adbd 8c88 ab3d
000003c0: a7fe 02bd 5de6 343e 9270 333e 929c 14be
000003d0: 49dc 203e dd56 2f3e ea4d 323e 1243 d63b
000003e0: 7816 b6bd 33f3 13be 52a6 8a3d b202 79bd
000003f0: 95c5 393e 5b5c adbd 1150 743d 9581 e0bd
0.0014248037 -0.009875764 -0.18454762 0.115687095 -0.12653048 0.047955073 0.15539606 -0.16969563
-0.026121065 -0.03970188 0.052129325 0.06477835 0.09446141 0.003919682 0.031005058 -0.15846205
0.0335231 0.09452749 0.03582337 0.09222707 0.04499627 -0.14201558 -0.0717782 0.17985827
-0.039196596 0.14872795 -0.16082111 -0.17620555 -0.028540563 -0.18711704 -0.15338095 -0.0035232182
-0.057383694 0.1418683 0.18580571 -0.17181626 0.19444358 0.09164323 0.072199345 0.05100048
-0.1516354 -0.062564306 0.0331527 -0.05816311 0.05326037 -0.10499659 0.011455015 0.15694898
-0.117955185 -0.018419411 0.14143753 0.027121771 -0.0202533 0.10784366 0.122092344 -0.17855766
-0.15599096 0.08669243 -0.122697726 0.08171227 0.09248999 -0.13192283 0.11032841 0.13509537
0.15645857 -0.0020146961 0.06457041 -0.16132653 -0.010647856 -0.13047788 -0.179811 0.18197554
0.09185646 -0.04882468 0.06444807 0.01609095 0.0048607695 0.070907384 0.14781423 0.16482496
-0.08733263 -0.15953907 -0.0070458115 0.1689125 0.161114 0.15912172 -0.002221699 -0.03654698
0.051870167 0.19713032 0.067569844 0.08979411 0.14491983 0.057080846 0.16044688 0.1900374
0.084147714 0.12886254 0.09855751 -0.07830103 -0.18253432 -0.13092767 -0.011798559 0.08142195
0.17847368 0.1647786 -0.12152562 -0.05911198 0.19445518 -0.014155426 -0.10444573 0.047493074
-0.018367361 -0.13741264 0.13698524 -0.024991121 -0.102392055 -0.06616832 -0.07355614 -0.15045388
-0.11610083 -0.01823197 0.12537298 -0.06935481 -0.09111152 0.10137809 -0.022618648 -0.056270555
0.11596639 0.1796152 -0.061989803 0.1706641 0.081524394 0.0071452456 -0.03741544 -0.061942775
-0.01962564 0.08466876 -0.10923316 -0.017090065 -0.07158729 0.023295846 -0.060345568 -0.16859011
-0.012895364 -0.084127754 0.16078204 -0.030830497 0.028221425 -0.13280806 -0.19287029 0.029584838
0.11723841 -0.05061829 0.13039215 -0.17853208 0.077428274 0.034755554 -0.15766515 -0.12756622
-0.15458208 -0.0197377 0.093428865 -0.021841126 -0.04091999 -0.1005538 -0.17746487 -0.1104831
-0.09770638 0.014577447 -0.082250185 0.040339652 -0.05340369 -0.003408957 -0.06131656 0.18177836
0.060046438 0.005106417 0.09128329 -0.12866324 -0.17449059 -0.09658026 -0.06341951 0.11261529
-0.10723609 0.108161405 0.043597233 -0.085747175 -0.16924326 0.13081048 0.108517736 0.15429914
-0.14386733 -0.0435921 0.17451292 0.09987712 -0.050498053 -0.010283479 -0.078979425 -0.048290726
-0.14086694 0.120902844 0.001501288 0.1860748 -0.073003165 0.1252912 0.011625809 0.0797375
0.09301254 -0.047548145 -0.096237324 -0.1445154 0.080618 -0.0019607216 0.16301496 0.08961765
0.124214984 0.045063995 -0.031942524 -0.05539979 -0.05882085 -0.1565341 -0.118399486 0.055492822
-0.057624403 -0.16796295 -0.015089422 0.10721751 0.0023940508 -0.16821969 -0.1799045 0.12014668
-0.08380806 -0.04323445 -0.04837293 0.14200772 0.08031239 0.13736372 -0.08481134 0.083756536
-0.031981137 0.17666002 0.17523411 -0.14512852 0.15709032 0.1712298 0.17412534 0.006538757
-0.08891004 -0.14448242 0.06770004 -0.060793586 0.18141778 -0.08464881 0.05964667 -0.10962216

sequential/conv2d_1/Conv2D f4 [32, 3, 3, 16]
00000000: f7b5 253d a6ee d93d 4161 35bd a5f3 f03b
00000010: ef24 71bc 352f 493c 76f4 b4bd 5c17 b83d
00000020: 9460 2b3d 3d12 0b3d 0ddd d2bc 7947 643d
00000030: 7dff d93c 49c6 dc3d 3b16 713d 14d0 8e3c
00000040: 78d9 64bd f4fe 003d c619 d6bd 631d da3d
00000050: 047d 96bd 1f30 e43d c02f f93d 8127 113d
00000060: 8317 bebd f4bf d2bd 8599 f53c 9533 9f3d
00000070: 5f90 df3d 3e23 e6bb a097 e7bd 53d9 053c
00000080: 04a0 c53d 52b0 3f3d d3c6 01bc ec06 f83d
00000090: 323a 683c 8859 eebd c941 c7bc c945 3e3d
000000a0: 7af7 993d 2b24 94bd 8ff6 063e b34b d83c
000000b0: c05e 893d 5b1c 8dbd e76a 723d 8af5 973d
000000c0: d00e d7bd b2b6 b3bd 57b3 5b3d 34d8 903d
000000d0: dfda 453d dff2 c4bc e300 9abd e976 473d
000000e0: 47dd e93d 5293 8d3d 4d82 af3d 2305 80bd
000000f0: 8c0d 563d c5a5 833d 7ffa 923d d0de cabd
00000100: c124 f5bd 7d57 d5bd bec9 a0bc dd8c b4bd
00000110: 35cb 86bd 6604 853d 34dd d63d adc4 b0bd
00000120: ac12 fbbc 4a77 70bd e3d4 c43d 9fbc 9ebc
00000130: 224d 123d 101a 99bd 1386 c5bd 1f1b 47bd
00000140: 4d87 25bd dd60 b43b 3777 81bd 0864 21bd
00000150: 2b89 d5bd 247d d83d d2bf 4b3d c0b6 87bc
00000160: f7ad de3d ed3a dbbc f8f7 b33d 6dff ecbd
00000170: 0214 89bd 2bc4 92bc 2698 95bd af8c bb3d
00000180: c50d 1a3d e851 aa3d d0d2 8ebd 5c38 9fbd
00000190: 1b55 14bd 6662 c43d ebb8 10bd 48bc bf3d
000001a0: 729c c13d f6ed 7f3c 5ce2 a83d e076 acbd
000001b0: a45d 2b3b cd23 383c e733 b5bc 72ee 113c
000001c0: 7fbb b83c c254 e63c 51a7 b0bd 8b04 6c3c
000001d0: 0e16 463d be44 bc3d 77ca e4bd 9b45 01bd
000001e0: 4262 ed3d db7d c23d 1013 773d e3c7 08be
000001f0: 89a6 0b3b 9e75 debc 4662 d2bd a656 cb3d
00000200: 6fd6 7cbd 93c7 92bb ffe6 9dbd 1699 3b3b
00000210: ee23 b0bc af6c b53b 0bc6 bebd 0d13 2bbb
00000220: 2704 99bd e82b 83bd 52b9 d53b 72fc f7bd
00000230: e660 1d3d c1e9 04bd 4f97 173c 0784 3a3e
00000240: f699 60bd de43 29ba 1798 603c 2ddf 0abd
00000250: 465e bcbc e2a7 61bd c599 ae3d c859 803d
00000260: 58ba cd3d 37bc 783b 118b b8bd ae7e 273d
00000270: b7f4 313b a9ab a83d 59e6 dabd 3185 aa3d
00000280: a0ff 3b3c 4a3e c43d ab06 3dbc 138b 163d
00000290: 59cd 053e 1c1b 44bd b583 f6bc d832 ddbd
000002a0: 6c4f 9fbd e540 a23d d4d5 9e3d ef76 493d
000002b0: 9b46 8bbd 5c68 713c 00c7 833d 4a2e d13c
000002c0: 6f26 b5bd 777f c23d 83f5 2c3d d070 e1bd
000002d0: 00fa da3c 1fb4 393d ee4c dfbd 02df 35bd
000002e0: c47f 4abd 6e9e 9cbd 6c73 aebd 31fa c53d
000002f0: df6f 353d 9c5a 063e c2bb d93c c490 debd
00000300: ea10 da3d ccaa c63d 0f0e 073e 4ac3 af3d
00000310: aace 03bb 1625 f9ba f1e4 b9bd 7530 ce3c
00000320: 30ea 1d3d f8cf e0bd a186 82bc 8d33 0f3e
00000330: 8137 1ebc 404c aebd 3517 df3d e4e7 f73c
00000340: 59d0 cc3d 7212 11bd 70a1 ce3d c7f2 b7bc
00000350: e443 f83d 00a6 55bd c595 7abd 5e12 993d
00000360: 6fe1 92bd d931 94bd 1041 62bd debd 153e
00000370: 001f afbd 6ecc 7cbd 3941 55bd e986 c3bd
00000380: 3327 3c3c 956c e7ba a1ed 2e3a 8577 24bb
00000390: c92f 2f3d f39b 113d 13a9 da3c 3a32 d53c
000003a0: fae4 37bc d7c3 b4bc 0b2b 00bc e3dc 003e
000003b0: aa24 a43c 8ca1 9eba f517 f33d 4b23 7c3d
000003c0: 13c6 58bd 4b08 36bd 8ad8 ddbc aa72 a13c
000003d0: eb4f 1c3e f3d8 b13d da31 12bd a463 783d
000003e0: d915 b6bd b0ea 483d 3131 7d3d eb2a 86bc
000003f0: b031 99bd 3a32 b63d ad97 c4bd 1021 dd3c
0.04045674 0.10641222 -0.0442822 0.0073532634 -0.014718278 0.012279321 -0.0883569 0.089888304
0.04184015 0.03395294 -0.02574017 0.055732224 0.026611084 0.107800074 0.05885909 0.017433204
-0.055871457 0.031493142 -0.10454135 0.10650136 -0.073480636 0.11141991 0.12167311 0.035438064
-0.09281828 -0.102905184 0.02998043 0.0777351 0.109162085 -0.007023244 -0.11308217 0.00816949
0.09649661 0.04679901 -0.007920939 0.12110695 0.014174031 -0.116381705 -0.024323361 0.04645327
0.075179055 -0.07233461 0.13179992 0.026403284 0.06707525 -0.06890174 0.05918398 0.0741988
-0.10500872 -0.08775081 0.05363783 0.070724875 0.048304435 -0.024041591 -0.075197004 0.048697386
0.114191584 0.06912865 0.08569775 -0.0625098 0.052259013 0.064281024 0.071766846 -0.09905779
-0.11969901 -0.10417078 -0.019627448 -0.0881593 -0.065817274 0.064949796 0.1049141 -0.08631263
-0.030648552 -0.058707513 0.096109174 -0.01937705 0.03571809 -0.07475674 -0.09644713 -0.04860985
-0.040412236 0.005504711 -0.063215666 -0.039402038 -0.10426553 0.10570744 0.04974348 -0.016566634
0.10873025 -0.026761496 0.08787531 -0.11572156 -0.06693269 -0.017915806 -0.07304411 0.09157693
0.037610788 0.083164036 -0.06973803 -0.077744216 -0.036213975 0.095890805 -0.0353326 0.09362084
0.09453668 0.015620699 0.082462996 -0.08421111 0.0026148343 0.011239004 -0.022119476 0.008906947
0.022550343 0.028116588 -0.08625663 0.01440538 0.048360877 0.09192799 -0.111714296 -0.03156052
0.11591007 0.09496661 0.060320914 -0.133575 0.002130898 -0.027155694 -0.102726504 0.09928636
-0.061727937 -0.0044793575 -0.07710075 0.0028625182 -0.021501508 0.0055366377 -0.093151174 -0.0026103884
-0.07471495 -0.06404859 0.006522336 -0.12108697 0.038422488 -0.032449488 0.009252383 0.18214427
-0.05483433 -0.00064569514 0.013708136 -0.033904243 -0.022994172 -0.055091746 0.08525423 0.062671244
0.10045308 0.0037953982 -0.090109 0.040892296 0.0027153918 0.082358666 -0.106884666 0.083261855
0.01147452 0.09582193 -0.011537234 0.036753725 0.13066615 -0.047877416 -0.0300921 -0.10800713
-0.077788204 0.07922534 0.07755628 0.04918569 -0.06800576 0.014734354 0.064344406 0.025534768
-0.08845221 0.09496968 0.042226326 -0.110078454 0.026730537 0.045337792 -0.10903345 -0.04440213
-0.049438253 -0.076474056 -0.08518109 0.09666861 0.04429614 0.13120502 0.026578788 -0.108674556
0.10647757 0.09700546 0.13188957 0.0858217 -0.0020112195 -0.0019008245 -0.0907687 0.02516959
0.038553417 -0.10977167 -0.015933337 0.13984509 -0.009656788 -0.08510637 0.10893098 0.030261941
0.10000677 -0.03541798 0.100893855 -0.022454632 0.12122324 -0.052160263 -0.061177988 0.074742064
-0.07171904 -0.0723607 -0.05523783 0.1462321 -0.08550835 -0.061718397 -0.052064154 -0.095472164
0.011483955 -0.0017656261 0.00066729827 -0.0025095653 0.04277018 0.035549115 0.026691949 0.026024926
-0.011224026 -0.02206604 -0.007822762 0.12584262 0.020037014 -0.0012102588 0.11869804 0.061557095
-0.052923273 -0.044441503 -0.027080793 0.019707996 0.15264861 0.08683958 -0.035692073 0.0606419
-0.08890886 0.04905194 0.06181449 -0.016377887 -0.0748018 0.08896299 -0.09599242 0.026993304

sequential/y_pred/BiasAdd/ReadVariableOp f4 [3]
00000000: 3037 043c 14ed ceba 5ec2 a3bb
0.008069798 -0.0015787208 -0.0049975356

sequential/y_pred/MatMul f4 [3, 18432]
00000000: 0b91 553b 7c8c 25ba c770 5a3c 520e 93bc
00000010: 944d cebb 2d5b d13b 5b95 8a3c 7154 7fbc
00000020: ca45 b7bc 96f1 8f3c 3e3f da3b 9148 0abc
00000030: 9608 713c 531b a1bc 1a6f d53b adbd 873a
00000040: f06f 32bc ace3 99bc 9871 223c ae70 a83b
00000050: b4c7 87bc 2aa0 ab3c 1c96 b63c b513 2cba
00000060: a01e 8bbc 5097 80bc 5aca 0c3c d6fa 18bc
00000070: 897a afbb 55c8 2fbb 27ca a4bc bfb4 a2bc
00000080: daea 2cbb cd0f 4cbb b6d6 7ebc 6699 a8bb
00000090: 52f1 193c 9c4e 9bbc a78b af3a 8a2e 703c
000000a0: 3d61 e0bb d87e 01bc fbf4 e53b 1ff3 803c
000000b0: 0012 c33c 35d6 19bc 7424 8e3c 4ef6 02bc
000000c0: c420 8e3b acae af3a 6042 8b3b 8f8c 88bc
000000d0: 8000 8739 b317 00bc 4ffb 433b a923 1e3b
000000e0: 1055 fa3a 9910 8cbc bab0 4a3c 907b 9cbc
000000f0: 0f1a b13c 85ad fc3c 6df4 c6bc 2383 48bc
00000100: d00e 6b3a adc4 a63b 4206 babb 79a8 a53c
00000110: 6830 3dbc 9f36 4a3c 4e60 683c fb2f 61bc
00000120: 93c5 8ebc 2a38 983c 2126 76bc 59ec 673c
00000130: 3cda 3fbb a1d6 5c3b eaf8 283c a4e5 8c3c
00000140: 3a6b c5ba da4a 84bc b820 e23c 1920 f9ba
00000150: 5760 963c 3dc3 373b c130 5c3c 1a35 92bb
00000160: 4fd7 4fbc c3ca a93c b6f1 8dbb 5884 27bb
00000170: b1fd d73c f484 023d 0cdc 33bc 7161 83bc
00000180: 3938 88bb aaa8 0cbc 502a 073c f9ca bd3b
00000190: 3828 1abc 92af 7c3c 7431 0c3c f8a4 d13b
000001a0: 7525 d13b b50a 12bc f668 14bb b3ef fa3b
000001b0: 0f62 e639 2fd6 733c 196c 37ba 3c5f e73b
000001c0: f4f1 a83b 0b51 773c 697b 8d3c 3472 8abc
000001d0: 769c ba3b 2230 293c b488 bbbc f44e 813b
000001e0: 771e 213c 2d09 bebb 1516 a93b efd3 6abc
000001f0: 8428 b53b 242e b43c 7e68 f6bb 2010 68bc
00000200: 2f77 f33b d8f1 2bbc c97e 74bc 05ed 8f3c
00000210: 9ebf 903c 2dad 8cbc 35f8 5e3c 419c b1bb
00000220: fc0c 2e3c ab08 14bc 33cb 2f3c 1738 0c3c
00000230: b273 6b3c a382 033c f6f4 1a3b b132 0bbc
00000240: 3cd7 6fbb d9ff 273c ffd0 cc3b 87af 173b
00000250: a06b 213c ae17 143b ee2a 8b3c 5e8f 29bc
00000260: 30d1 dfbb ed03 81bc 217f 1abb 8311 d5ba
00000270: dc83 153d 7e08 29bb 0615 9dbb ee38 efbb
00000280: ad0e 083c ad47 26bc c0e8 7abc 5aee 823c
00000290: 1002 18bb 794a 193b e52d bc3c d71d a5bb
000002a0: 7a70 203a 2061 cb3b 5914 0bbc b5a5 d63b
000002b0: dcf9 b63c b405 883a c388 803c 8a08 4f3b
000002c0: 94b8 3dbc 0254 a7bb 2f1a 013d c352 cf3b
000002d0: 6c31 6c3c 8729 cabb db8f 2cbc 5ab7 5cbb
000002e0: 79a2 86ba a0d9 613c 5bdc a4ba be6e 21ba
000002f0: b576 f13b 4454 b03c 36d6 3dbb 6401 4fbc
00000300: 159f d13b 5f06 783c 80dc e5bb 6a7f 0a3c
00000310: 164e 123c 8410 9ebb 16ae 9b3c cfbb 5a3c
00000320: 7179 b9bb d0a5 9f3c 6f0f 063c 46a6 4eba
00000330: 8b27 ea3c 0c7e 63bc 58aa 213c 38e3 473c
00000340: 194f efbb 0b1c 8dbc 75af 13bb 2f9e 413c
00000350: 4cb6 633c 9b71 28bc beec bcbc 0bb3 25ba
00000360: bd6a 5c3c 9138 a93b fd8f e5ba 545d a7bb
00000370: a9f8 ad3c 7451 1f3c 2a11 77bc 8945 483a
00000380: 98a0 c4bc 2861 82bb 1c88 39ba 0d77 243c
00000390: 1c22 f03b 15d9 8cbb 1ca9 b53c d798 02bc
000003a0: f5c4 263c f056 963c 6848 28bc dbba 843b
000003b0: bd36 393b 0243 153c 4243 30bc d1cc 0fba
000003c0: edf7 b8bb 7921 1a3c eaee 0b3c 544d a1bb
000003d0: e6c8 753c f6bb 13bc 2356 61bc bca6 2b3c
000003e0: 9450 18bc 4f35 67bb b873 35bc 841c 573c
000003f0: 3605 243d 1ada b93c a5e7 10bd 62d2 9c3a
0.0032587673 -0.00063151843 0.013332552 -0.017951164 -0.006295869 0.006389043 0.016916921 -0.015584097
-0.022372145 0.017571252 0.006660371 -0.008440153 0.01471152 -0.01966635 0.0065134885 0.001035621
-0.010890946 -0.01878532 0.009914778 0.0051403856 -0.016574718 0.020950396 0.022288375 -0.0006564216
-0.016982377 -0.015697151 0.008593166 -0.009337148 -0.0053551835 -0.0026822288 -0.020115925 -0.019861577
-0.00263851 -0.0031137348 -0.015554121 -0.0051452396 0.009395914 -0.018958382 0.001339306 0.014659533
-0.006847529 -0.007903777 0.0070177293 0.01574093 0.023812294 -0.00938945 0.017351367 -0.007993294
0.004337402 0.0013403497 0.004249856 -0.016668586 0.0002574958 -0.00781815 0.002990443 0.0024130142
0.0019098837 -0.017097758 0.012371236 -0.019101888 0.021618871 0.03084446 -0.024286473 -0.012238297
0.0008966746 0.0050893635 -0.0056770155 0.020221936 -0.0115471855 0.012342124 0.014183117 -0.01374435
-0.017428195 0.018581469 -0.015023739 0.014155471 -0.0029274365 0.0033697265 0.010313252 0.017199345
-0.0015061863 -0.016148973 0.027603492 -0.0019006758 0.018356485 0.0028039955 0.013439358 -0.0044618966
-0.012685611 0.020726567 -0.0043317927 -0.002556106 0.026366087 0.031865075 -0.010977756 -0.016037675
-0.004157093 -0.0085851345 0.008249834 0.0057920185 -0.009409003 0.015422719 0.008556712 0.0063978396
0.006382639 -0.008913686 -0.002264557 0.007657969 0.00043942078 0.014882608 -0.0006997004 0.0070609134
0.005155796 0.015095006 0.01727076 -0.01690016 0.005694921 0.010326417 -0.022892334 0.0039461795
0.009833924 -0.0057994337 0.005160103 -0.0143327555 0.0055285115 0.021994658 -0.0075197807 -0.014164001
0.0074299793 -0.010494672 -0.014922806 0.017569074 0.017669495 -0.01717242 0.013608982 -0.0054202382
0.010623213 -0.00903527 0.010729599 0.008558295 0.014370846 0.008026752 0.0023644543 -0.0084959725
-0.0036596796 0.01025387 0.0062505 0.0023145394 0.00985232 0.0022597122 0.016988244 -0.010349123
-0.006830357 -0.015748942 -0.002357431 -0.0016255829 0.036502704 -0.0025792415 -0.004793766 -0.0073004877
0.00830428 -0.010148925 -0.015314281 0.015982796 -0.0023194589 0.0023390336 0.022971103 -0.0050389576
0.0006120276 0.0062066466 -0.008488738 0.0065505155 0.02233594 0.0010377676 0.015690213 0.0031590783
-0.011579651 -0.00510645 0.03151911 0.0063270046 0.01441608 -0.006169501 -0.010532345 -0.0033678622
-0.0010271809 0.013784796 -0.0012577878 -0.00061581645 0.0073688873 0.021524556 -0.002896679 -0.012634609
0.006397138 0.015138238 -0.007014811 0.008453229 0.00892975 -0.004823746 0.01900391 0.013350441
-0.005660229 0.019488245 0.008182391 -0.0007883053 0.028583309 -0.013885032 0.009867273 0.012200169
-0.0073031303 -0.017225286 -0.0022535 0.011817499 0.013898443 -0.010280992 -0.023062106 -0.000632093
0.013453183 0.005164214 -0.0017514225 -0.005107561 0.021236734 0.00972401 -0.015079776 0.0007639756
-0.024002358 -0.003978867 -0.0007077472 0.01003815 0.007328285 -0.004298339 0.022175364 -0.00797101
0.010178794 0.018352002 -0.010271169 0.004050595 0.0028261386 0.009110214 -0.010758223 -0.0005485537
-0.0056447894 0.009407395 0.008540848 -0.0049225483 0.015001511 -0.009016981 -0.013753447 0.010476764
-0.009296555 -0.0035279577 -0.011074953 0.013129357 0.040044032 0.022687007 -0.035377163 0.0011964554
