model/lemon disease.lite (tflite, 170592 bytes, 6 tensors)

sequential/conv2d/BiasAdd/ReadVariableOp f4 [16]
00000000: 5a4b bd3b 5e31 9c3b 8eb2 86ba 56b8 4dbc
00000010: 2946 fa3c 75f0 943c c6e1 273d b44f 0dbb
00000020: 8272 0e3c cd91 a13b aab1 27bc 3deb cb3b
00000030: 86b2 2e3b af35 a13b 2d5a f03b deb0 ad3c
0.005776805 0.004766627 -0.0010276602 -0.012556156 0.030551033 0.018181065 0.0409868 -0.00215624
0.008694293 0.004930711 -0.0102352295 0.006223111 0.0026656701 0.0049197297 0.0073349685 0.0212025

sequential/conv2d_1/BiasAdd/ReadVariableOp f4 [32]
00000000: e277 143c 67aa 6fbb 6ede 32b8 d8dd 0b3c
00000010: 1511 533d a5c1 843c 421d 603a 5ba7 66bc
00000020: 327e 4c3c 29fb 5a3c 8bd3 d8bb 86f6 013c
00000030: d2ba 513c d108 6a3b 6cb5 a63b a6da 743b
00000040: 33df c33b 6cb0 d2bc 420a 863c eda0 b8bb
00000050: 3b9a fcbc 676c 433a 7e34 e6ba a340 39bc
00000060: 374c 12b8 81bd 033c 501b 0ebc 4024 a1bb
00000070: f04a 823c e7f7 173c 5cc1 ed3c 9530 1abd
0.009061785 -0.0036570074 -4.264566e-05 0.008536778 0.051529963 0.016205618 0.00085492816 -0.014077987
0.012481259 0.013365545 -0.0066170148 0.007932311 0.012800889 0.0035710821 0.005087545 0.003736177
0.005977535 -0.02571889 0.016362313 -0.005634418 -0.030835262 0.0007454813 -0.0017563251 -0.0113069145
-3.4880093e-05 0.008040787 -0.008673504 -0.0049176514 0.015904874 0.009275413 0.029022865 -0.037643988

sequential/conv2d/Conv2D f4 [16, 3, 3, 3]
00000000: 1e06 a73b 4794 1cbc 8b6e 38be 74d6 f03d
00000010: 43f7 02be 8e2e 4e3d ed26 223e b6d3 2dbe
00000020: e754 bfbc 87e9 16bd 4d5c 513d 1d10 893d
00000030: cb1a c63d 8ee4 143b b498 053d 7e64 1fbe
00000040: a496 093d 3fa2 c73d e61f 1a3d 7c96 ba3d
00000050: 726d 3b3d 8ea6 0ebe 757a 93bd 7d99 3a3e
00000060: 9894 13bd 56bd 183e d8f5 20be 20a9 44be
00000070: 7260 c4bc 85f8 3fbe 9d49 27be d80a 9e3b
00000080: 25ec 54bd b3d2 0c3e de51 4a3e 2535 24be
00000090: 7854 413e 9d3d be3d e5e0 993d 1d5e 313d
000000a0: bed9 1abe 857b 76bd 95a3 ea3c f1b4 5bbd
000000b0: a978 773d 77b9 e1bd 385d 123c ae0f 223e
000000c0: 55bb fbbd b5da a0bc a060 143e 1251 b73c
000000d0: c6c0 9fbc 4d2b e73d ee92 f63d 7fb9 33be
000000e0: b653 20be 1db0 ad3d 436f f7bd 6483 a53d
000000f0: 9f30 ba3d ec13 05be 1722 e13d be9d 083e
00000100: d858 223e 78ce 35bb 99a3 7a3d 8ea6 23be
00000110: fd3d 48bc 3cda 09be be7b 36be b12e 393e
00000120: 9dd4 b53d f219 41bd 6e0a 813d 96f8 4f3c
00000130: a969 cf3b 81b5 8d3d 1eee 133e cc45 2a3e
00000140: c8a6 b5bd 6b35 1ebe 9222 debb 94ca 1e3e
00000150: 9216 293e a0b5 223e a69a 83bc 6f76 04bd
00000160: 0bc6 543d 3faa 3b3e edd4 953d 3e47 b93d
00000170: 83d4 063e 63db 793d c4e9 233e 3a85 343e
00000180: 0388 b53d 0c5e 043e 693a ae3d 1017 94bd
00000190: 1f7c 3abe 80a1 15be d36e efbb 791e a63d
000001a0: d75a 273e 8320 2d3e d06d f9bd 2cc9 98bd
000001b0: 4dce 453e 9e39 74bc 5743 d0bd 337c 373d
000001c0: 8cad 93bc 924c 09be f22f 063e b7fe dfbc
000001d0: 69c9 d1bd 7482 6fbd 2a86 72bd b820 00be
000001e0: 724b 04be d956 cfbc 6afa fc3d 9dae aabd
000001f0: 4989 d0bd 5402 ca3d fd45 57bc 609a 1abd
00000200: b977 0f3e 3fad 2f3e 4c41 7ebd 7d1d 353e
00000210: 0b1a 923d 1b11 6a3b f040 08bd 5cb8 01bd
00000220: f287 c23c 57f4 cd3d eee6 9dbd 7796 d63c
00000230: f1f9 51bd 2998 653d bfbf 95bc 4680 12be
00000240: 4f5a bf3c 312b 15bd 5489 323e 76c9 003b
00000250: 7f4f 953d 11d3 f7bd 49ee 1cbe a753 983d
00000260: 1560 133e f38a 35bc b3e9 383e 8d2d 2dbe
00000270: d58c f13d 43f8 b03d 30c6 16be 0049 b8bd
00000280: 0796 d7bd 77c4 73bc 62a3 fa3d 7525 a03c
00000290: 9564 eebb 4f06 cebd 3c57 13be 6527 b5bd
000002a0: dabc acbd db6e 3a3d fc1d 89bd 0c55 533d
000002b0: a8d1 20bd 2333 3c39 ae63 8abd 8616 363e
000002c0: fc8f 4c3d 3f6a a4b9 c67c b73d 0b66 0fbe
000002d0: 23f6 27be cd29 abbd 676c 56bd 1e26 e03d
000002e0: e4f2 ddbd 6434 d63d 59ba 2e3d 0d6c abbd
000002f0: ef99 32be 5b2b 0f3e 67b1 d93d ed15 0b3e
00000300: 5c8f 0abe b558 40bd d0cc 1e3e 87eb de3d
00000310: 0c24 5abd 00ce f2bc 80d4 8ebd 3233 4cbd
00000320: 2710 24be 87f1 043e f9d4 60ba 36c3 2a3e
00000330: 1626 83bd 7b73 fc3d 5e87 f6bb ae77 b83d
00000340: 15f3 bf3d ab76 87bd 70b8 b1bd cdc1 14be
00000350: 65d3 793d d0c2 f43b 9469 263e c529 913d
00000360: ba5a f63d 2068 053d 6075 12bd f022 6bbd
00000370: b157 91bd 36b9 23be 1c35 fabd af91 2c3d
00000380: 7486 79bd cb47 21be dbf0 6ebc dde0 ec3d
00000390: 3500 6f3c 19a4 2bbe cd4e 2fbe 6b5d 023e
000003a0: 4d62 b4bd 81cd 1bbd d43f 25bd 42d0 123e
000003b0: 2dd5 b03d 62bc 143e 55e5 aabd d3e0 b73d
000003c0: dd62 dfbc e0e0 323e 447a 373e 6059 1fbe
000003d0: a3dc 0f3e 4aca 253e 31a9 293e 13af 05bc
000003e0: 0696 c4bd 10b0 15be b921 753d 7ba5 76bd
000003f0: dc38 313e a6de cbbd 0c56 553d 179a f0bd
0.005097165 -0.009556836 -0.18010919 0.11759654 -0.12789635 0.050337367 0.15835162 -0.16975293
-0.023355914 -0.036843803 0.051113416 0.066925265 0.09673079 0.0022719237 0.032616332 -0.15565678
0.033590928 0.09747743 0.037628077 0.09110734 0.045758672 -0.13930723 -0.07201091 0.18222614
-0.036030382 0.14915976 -0.15718782 -0.19205141 -0.02397177 -0.18747146 -0.16336675 0.00482307
-0.051983017 0.1375225 0.19757792 -0.16035898 0.18879879 0.092890956 0.07513598 0.043302644
-0.15122125 -0.06017639 0.028642455 -0.053639356 0.060417805 -0.11021703 0.008933358 0.15826294
-0.1229159 -0.019635538 0.14489985 0.022377525 -0.019501101 0.11287556 0.12039743 -0.1755123
-0.15656933 0.084808566 -0.12081768 0.080817014 0.09091305 -0.12995881 0.1099283 0.13341424
0.15854204 -0.0027741473 0.061191175 -0.15981504 -0.01222181 -0.13462156 -0.17820641 0.18084218
0.088784434 -0.047143884 0.063008174 0.012693545 0.0063297343 0.06919385 0.14446303 0.16628188
-0.088697016 -0.15450065 -0.0067790234 0.15506965 0.16512516 0.15889597 -0.016064953 -0.03233951
0.05194668 0.18326662 0.07316003 0.090467915 0.13167004 0.06100024 0.16007143 0.17628947
0.08863833 0.12926501 0.085072346 -0.07230961 -0.18211411 -0.14612389 -0.0073069124 0.08111281
0.16343246 0.16906933 -0.12179148 -0.074602455 0.19316979 -0.014906315 -0.10169094 0.04479618
-0.01802709 -0.13408116 0.13104227 -0.027343137 -0.10243494 -0.05847402 -0.05920998 -0.12512481
-0.12919405 -0.025309967 0.1235245 -0.08334086 -0.10182435 0.09863725 -0.013139245 -0.03774488
0.14010514 0.17155932 -0.06207399 0.1768703 0.071338736 0.0035715762 -0.033265054 -0.03166996
0.023746464 0.1005637 -0.07710062 0.026194794 -0.051263753 0.056053314 -0.018279908 -0.14306745
0.023358492 -0.036418144 0.17435199 0.001965133 0.07290553 -0.121008046 -0.15325274 0.074378304
0.14392121 -0.011080491 0.18057899 -0.16911907 0.1179444 0.08641102 -0.1472404 -0.08998299
-0.10526662 -0.014878384 0.12238194 0.01954911 -0.007275174 -0.10059797 -0.14388746 -0.088454045
-0.08434458 0.045515876 -0.06695172 0.05159478 -0.039262444 0.00017948127 -0.06757294 0.1778203
0.049942 -0.00031359677 0.089593455 -0.1400377 -0.16402487 -0.08357582 -0.052349474 0.1094477
-0.10837343 0.104592115 0.042658184 -0.083702184 -0.17441534 0.13981383 0.1062954 0.13582583
-0.1353125 -0.046959598 0.15507817 0.10884767 -0.053257033 -0.029639244 -0.06974125 -0.04985351
-0.16021787 0.1298276 -0.0008576657 0.1667603 -0.06403749 0.12326714 -0.0075234612 0.09007202
0.09372536 -0.06614431 -0.08677757 -0.14527054 0.060992617 0.0074695125 0.16251212 0.07088045
0.120290235 0.032570004 -0.03575647 -0.057406366 -0.07096804 -0.15988621 -0.12217161 0.042131122
-0.06091924 -0.15750043 -0.014583792 0.11566327 0.014587452 -0.16761817 -0.17119904 0.12730949
-0.08807812 -0.03803778 -0.040344074 0.14337257 0.0863441 0.14524987 -0.08344523 0.08978429
-0.027268821 0.17468596 0.17917734 -0.15561438 0.1404901 0.16190448 0.16568448 -0.008159417
-0.09598927 -0.14617944 0.059846614 -0.06021641 0.17306846 -0.09954576 0.052084014 -0.1174814

sequential/conv2d_1/Conv2D f4 [32, 3, 3, 16]
00000000: 1c02 333d 2937 ff3d fde8 36bd 33e5 ec3b
00000010: a262 10bc cacf 973d 3feb bbbd 4459 ba3d
00000020: 8e54 173d f57a 7e3c 359e 9dbd 5d18 243d
00000030: 3f0f d83c b31f d53d f9db 813d 93dd c93c
00000040: 3ab6 5bbd 08c8 3b3d 9ca1 d7bd 420e da3d
00000050: fd05 30bd 6500 2f3e 22f4 be3d 80e2 153d
00000060: 20e8 cbbd d37a eebd 1749 11bd 7be5 7b3d
00000070: 51c3 df3d d6e4 28bc 67bd e1bd 21d3 3dbb
00000080: dd44 c43d fbf9 633d 0d80 19bc dd51 f83d
00000090: dc0c a03c 2413 0dbd 6624 37bd 02ee 433d
000000a0: 4112 833d 168d b5bd 770f 753d 8317 023c
000000b0: fa48 8a3d 837b 92bd 777c 7c3d bd99 5e3d
000000c0: a260 cfbd 131d 69bd 2e6a 5d3d 996b 923d
000000d0: 79ed 943d f1ba 4b3d fd72 9cbd f2ca 4f3d
000000e0: ff03 dd3d d9e5 873d 4d77 b93c 184e b2bd
000000f0: 2a61 543d 86e9 7b3d a7a6 9c3d 7c6f aabd
00000100: 8991 efbd 32d0 87bd 28d3 9ebc f40f b4bd
00000110: 634c 6abd ea5e 0c3e 4dc5 e53d 8ec9 acbd
00000120: 8579 fdbc 6929 87bd 6afa b63c f7a2 26bd
00000130: 87c2 113d c7f1 a4bd eb42 babd 04fd 14bd
00000140: a290 22bd 0fd9 393d d1ca 81bd 7578 1fbd
00000150: 8ff2 c9bd a8a9 413e 7fcd df3c 9610 6dbc
00000160: 7211 cc3d 5dca 3bbd ad2e 773c ad8c 0ebe
00000170: aea6 88bd af48 b4bc 003a 8bbd f32c f73d
00000180: 92c7 2d3d 6b43 e83d 4a6c 8abd b002 9cbd
00000190: 4f9d 1abd 2150 323e cd72 10bd cfb1 c63d
000001a0: 1b98 b73d 6ea2 843b e888 cb3a 561f d5bd
000001b0: dd57 3f3b 07e0 003c 017a 86bc 4a15 85bc
000001c0: 33b6 d93c 1249 6e3d 4e1a acbd aeee 823c
000001d0: d639 1b3d c5dd 2a3e ce3e 04be 39a6 e4bc
000001e0: ec83 de3d d239 b83d 9800 d7bc a1d2 1cbe
000001f0: 1dc6 183b 903d 01bd 28b5 c3bd 9131 9f3d
00000200: e821 70bd 8ee0 223c 4789 9abd 04c9 973b
00000210: b245 1ebd 88af cf3d f40a f7bd 27b9 7c3a
00000220: a4f7 b6bd eed0 a8bd f819 85bd 21da 10be
00000230: d4c3 203d e29d 13bd d40b 7b3c 0baf 203e
00000240: aea7 69bd 09a4 c9bc 60b9 703c 732d 09bd
00000250: 7071 87bd 6eb3 e6bd ad42 a73d aaeb 813d
00000260: 2a95 e53d f8b3 9a3c 291f 8cbd 3f3a 4a3d
00000270: c83b 9cba 1014 ac3d 23fa c5bd ad63 743d
00000280: 87ba 0e3c 7b72 893d c402 2cbc 7c9f 1b3d
00000290: 604c dd3d 5895 cebd 12f5 c4bc e0a0 dabd
000002a0: 4e0d 96bd 1af0 b33d b610 e63d 09c1 5d3d
000002b0: d208 91bd a34c 8d3c 2091 963d 07c6 673c
000002c0: 3130 b7bd 6e00 943d 25fd 3b3d 9745 dbbd
000002d0: e317 e23b c05d a9bc d738 b0bd 088e 26bd
000002e0: 392a 3fbd 47aa 1bbd 6bdf 6abd ba45 ca3d
000002f0: 0034 253d a712 0a3e 6dd9 273d 7834 d4bd
00000300: 6285 d33d be1c 813d c5ab 063e a13d b13d
00000310: 04ea 5dbd 5296 82bd 93f2 a8bd 22fe d13c
00000320: 5f74 2e3d fa5b b5bd e2ae 493c 81c4 133e
00000330: 91f2 3bbc 5954 abbd b1ae f13d c572 453c
00000340: 93b3 c83d 3922 90bd dc5e ce3d 080a b0bc
00000350: ef9b c33d db16 c8bd e82e a8bd 7f5c 9b3d
00000360: 2898 91bd a8d2 73bd 7e31 9bbc 78d7 193e
00000370: 8a13 b4bd e01a 7dbd c1c3 30bd 87ff d5bd
00000380: dbd1 f83b 28f2 10bd 843b 323b 7513 a1ba
00000390: 41aa cfba ee7c 7ebc 0db7 d7b9 7a85 e83c
000003a0: a0bf 5bbc d3f2 6c3b c35c 1e3d 8a1c 013e
000003b0: 2d9f 823c c30a 4bba 916c 063e d66c 1a3d
000003c0: 1886 5cbd 7982 77bd 5800 debc d766 a43c
000003d0: 9822 df3d 28a8 e73c e5a1 c6bb 33e1 7a3d
000003e0: acc9 a4bd e675 943d 5d51 cc3d 0ba6 7abc
000003f0: 90fd 9cbd 16a7 a33d 0c28 b0bd 1c5a 9d3c
0.043703184 0.12461693 -0.04465579 0.007229471 -0.008812578 0.074126795 -0.09175729 0.09099057
0.036945872 0.015532245 -0.07696191 0.040062297 0.026374457 0.10406437 0.063407846 0.024641788
-0.05364058 0.04584506 -0.105288714 0.10647251 -0.04297446 0.17089994 0.093239084 0.03659296
-0.09956384 -0.116445206 -0.035470095 0.061498147 0.109259255 -0.010308465 -0.11022454 -0.0028964954
0.09583447 0.05565832 -0.009368909 0.12124989 0.019537382 -0.034442082 -0.044712447 0.047834404
0.06399966 -0.08864801 0.0598292 0.007940176 0.067522004 -0.07152464 0.061642136 0.054345835
-0.10125853 -0.056912493 0.05405634 0.07149429 0.07271857 0.049738828 -0.0763912 0.050730653
0.10791778 0.06635637 0.022639895 -0.087063015 0.051850475 0.061502002 0.07648974 -0.08322045
-0.116976805 -0.06631507 -0.019387797 -0.08792105 -0.057201754 0.13708082 0.11219273 -0.08436881
-0.030941734 -0.06599695 0.022336204 -0.04068276 0.035585906 -0.08053928 -0.09094795 -0.036374107
-0.039688714 0.04537302 -0.06337512 -0.038933236 -0.098607175 0.18912375 0.027319668 -0.014469286
0.09964265 -0.045847286 0.015086812 -0.13920851 -0.066724166 -0.022007314 -0.06798172 0.1206912
0.042426653 0.11340984 -0.06758936 -0.076177 -0.037747677 0.17413379 -0.035265733 0.09701883
0.08964559 0.0040476834 0.0015528472 -0.104063675 0.0029196658 0.007865912 -0.016415598 -0.016245503
0.026576137 0.058175154 -0.08403455 0.015982952 0.037896954 0.16686161 -0.12914583 -0.027911292
0.10865006 0.08995403 -0.0262454 -0.15314724 0.0023311444 -0.03155285 -0.09556037 0.07773126
-0.058626086 0.009941233 -0.07545715 0.004632117 -0.038640685 0.10140902 -0.12062636 0.0009640627
-0.089339525 -0.08242975 -0.06499094 -0.1414571 0.039249256 -0.03603924 0.015322644 0.15691774
-0.057044677 -0.02461435 0.014692634 -0.03349061 -0.06613433 -0.11264692 0.08167014 0.063437775
0.112100914 0.018884644 -0.06841881 0.049371954 -0.0011919672 0.08402264 -0.096668504 0.05966537
0.008711464 0.067112885 -0.010498706 0.037993893 0.10805583 -0.10087079 -0.02404264 -0.10675216
-0.073267564 0.0878603 0.11233656 0.05413917 -0.070817605 0.017248457 0.07351899 0.0141463345
-0.08944739 0.072266445 0.045895714 -0.107066326 0.00689982 -0.020674586 -0.08604591 -0.040662795
-0.046671126 -0.038004186 -0.057341974 0.098765805 0.040332794 0.13483678 0.040978838 -0.1036157
0.10328175 0.0630431 0.13151462 0.08654333 -0.054178253 -0.063763276 -0.08249392 0.025633875
0.04259145 -0.08855434 0.012309762 0.14430429 -0.011471407 -0.083656974 0.11800898 0.012051289
0.09799876 -0.070377775 0.10076687 -0.021489158 0.09551226 -0.09769984 -0.08212072 0.075860016
-0.071090996 -0.05952707 -0.018944498 0.15023601 -0.08792789 -0.061793208 -0.043155435 -0.104491286
0.007593376 -0.03538719 0.0027196119 -0.0012289124 -0.0015843586 -0.015532715 -0.0004114438 0.02838396
-0.013412386 0.0036155477 0.038662683 0.12608543 0.015945042 -0.0007745439 0.13127352 0.03770145
-0.05383882 -0.060427163 -0.027099773 0.02006857 0.1089527 0.028278425 -0.00606178 0.061249923
-0.08046278 0.0724905 0.09976456 -0.015298377 -0.07665551 0.079908535 -0.08601388 0.019208007

sequential/y_pred/BiasAdd/ReadVariableOp f4 [2]
00000000: 71a4 903a 44a4 90ba
0.0011035335 -0.0011035283

sequential/y_pred/MatMul f4 [2, 18432]
00000000: 07c6 913c bb18 47bc 7c7e e93b 0b29 393c
00000010: b1a8 af3c d1ed 3bbc f9d5 20bc 00df 97bc
00000020: c959 323b 6f6d aa3b 5128 7abc 4d99 6bbc
00000030: cba6 90bc 0db2 5d3c 3f58 2d3b 0305 813b
00000040: 500a 893c e2f6 283c 42cc da3c 30c4 51bc
00000050: dcaf 143c 90f1 113c da85 2d3c 8c40 003c
00000060: 1a52 5eb9 f96c 413b f005 883c 9080 0c39
00000070: d27c e33b c41b 95ba 8c34 313a 2663 3d3c
00000080: 1c0e 77b9 3271 4e3c 0838 0a3c 8a63 3abc
00000090: d03b db3c 736d 9abc 1822 60bc 3f62 683c
000000a0: b6bb 4a3c d39a 433c 6e2d 83bc 5288 353c
000000b0: 5cee 7cbc 6699 9f3b 3ebb e03b 5559 3fbc
000000c0: fece 99ba 46d4 69bc fc47 863c 5661 aabc
000000d0: 75f4 553c b805 86bc 0c17 093d fb7e 7bba
000000e0: fff4 56bc ab5b 6cbc 49d6 553c b7b6 fd3a
000000f0: c35e 8e3a 3241 83bb 1cb7 b53b 76d6 a23b
00000100: a23b 4aba e13c 05bc c964 5b3c 1533 103c
00000110: e015 9d3c 49ed 4d3c f6fa 49bc 132f 4f3c
00000120: c6bb c13b 2c92 92bb bf50 9fbb c1e8 89bc
00000130: 7ef4 01bc d2e1 893a d6c7 8f3b 3d97 9838
00000140: fb9f 77ba 23df 2e3b 3024 593b be45 12bc
00000150: d902 b739 6b73 cb39 2d93 d23c fb58 543c
00000160: 651d 873c d138 33bc 580d a13b 2eec fdba
00000170: f7bf 143d 0f95 18bc 593f 4fbc 7047 4f3a
00000180: 5764 d33b 0272 273c 5eb8 0a3c 43bd 00bc
00000190: d3b2 5c3d 8d44 eb3b 7c99 6dbc 46fa a8bb
000001a0: 76e1 01b8 ee55 86ba ddc2 44bc eb11 ac3b
000001b0: e242 a5bc a329 4cbc a96e 483c 6493 aabc
000001c0: 57f2 86bc 908b 5f3c e023 e5bc 0879 303c
000001d0: 00a5 1b3c 47c2 253c c8f4 703c 71f9 82bc
000001e0: 951b d53a f5e9 65bc 4969 053a 35b1 543c
000001f0: 9041 163d 7283 70bc b268 113d b1f0 5ebc
00000200: 35f7 043c 29e6 0c3c 2608 95bc 5025 e03b
00000210: 4bd9 dc3c be14 193b d5fb 61bc 39da 2eba
00000220: 51aa 95bc b527 273b 899d 863a 494a efb9
00000230: 4056 e23b a064 4a3c 839d 33ba 68db 51ba
00000240: 1d54 ecba 7154 25bc 1f2f abbc b9b8 ae3b
00000250: 250a a6bb b475 613c 31c4 723c b743 09bb
00000260: 62ce 12bc 0d0c 0dbc 786a 623b 1d9f 59bc
00000270: e9c4 053d bb5a 1f3c d2f1 c4bc 109d 103b
00000280: 57d7 5cbc 1ee3 b03a db42 7f3a 22f2 55bc
00000290: db27 e83c b66b 93bb 9f84 933a 5cd0 403c
000002a0: ff6f de3b 51fe 93bc 85d4 dbbb f0a2 17bb
000002b0: d7c1 1b3c b4a7 633c c9c9 1c3c 1a76 8abc
000002c0: d4ac 863b c4a7 80bc deba 0c3b fec7 923a
000002d0: 227b 693c fda1 013c 9706 e93c 7256 d13b
000002e0: da8e ad3b 30fc c1bc 0947 65bc b484 96bc
000002f0: e79b 753c 5306 173c 982f dabb bfd2 7fbc
00000300: 7bf3 773c 5c51 1e3b 0809 f93b 1b14 8ebc
00000310: 5f29 d9bc df65 a03a 5908 0a3c c3f9 d13b
00000320: 45a0 4fba 9451 b2bb db03 673c d332 96bc
00000330: b89d 0bbc 2be2 2bbc eccd 61bb 14fd 0d3c
00000340: 8037 9ebc 2788 893b 8aff 0d3b 8010 1e3c
00000350: a471 80bc 4cf9 403a ec48 ba3c 5b68 1bb9
00000360: b1ad 2eba e17c 68bb f695 ac3b 1222 55bc
00000370: de81 163d faf0 633b 30e3 203d 2e4c f63a
00000380: caf0 d43b 33c6 463c 8b0d 4e3c ff87 08bc
00000390: 7468 acba 82ac 19bc cd64 45bb ba36 233a
000003a0: 8c19 2a3c 5d30 7fbb b7ca 4d3c bddc 92bc
000003b0: d495 3fbc c3c3 403c 6fd2 bebb bf57 373c
000003c0: 14d9 933c fa46 ad3b e4a0 9f3c 943c 2ebc
000003d0: 13b0 a93b 78f4 6e3a 5f5c 943c 484d 9abb
000003e0: 056a 5ebb a6fa 47bb c82a 983b cf9e 49bc
000003f0: fdd1 a73c e4b1 c33b 3ffc 443d fad2 91bb
0.017794622 -0.012151892 0.007125674 0.011301289 0.021442743 -0.011470274 -0.00981664 -0.018538952
0.002721416 0.005201034 -0.015268401 -0.0143798115 -0.017657658 0.01353122 0.0026450304 0.003937365
0.01672855 0.010312768 0.026708726 -0.012803122 0.009075131 0.008907691 0.010590995 0.007827889
-0.00021202155 0.0029514416 0.016604394 0.00013399334 0.00694237 -0.0011376073 0.0006759844 0.011559283
-0.00023561012 0.01260023 0.00843621 -0.011376271 0.02676192 -0.018851018 -0.013680004 0.01418358
0.012373855 0.011938768 -0.016012874 0.011079865 -0.015437689 0.0048705814 0.0068582585 -0.011679013
-0.0011734662 -0.014271801 0.016391747 -0.020798367 0.013058771 -0.016360149 0.033469245 -0.00095938117
-0.013119935 -0.014426152 0.013051578 0.0019356821 0.0010861981 -0.0040055746 0.00554551 0.0049694134
-0.00077145745 -0.00813219 0.013390728 0.008801241 0.01917547 0.01256878 -0.0123279 0.012645501
0.005912277 -0.0044729915 -0.0048619206 -0.016834619 -0.007931827 0.001051957 0.004387836 7.276095e-05
-0.0009446141 0.0026683293 0.0033133142 -0.008927761 0.00034906602 0.0003880517 0.025704945 0.012960668
0.016493509 -0.010938839 0.004914921 -0.0019372755 0.036315884 -0.009312882 -0.012649381 0.00079070684
0.0064511704 0.010220053 0.008466808 -0.0078576235 0.053881478 0.0071798027 -0.014501926 -0.005156788
-3.0965974e-05 -0.0010248998 -0.01200935 0.0052511594 -0.020173494 -0.012461099 0.012233415 -0.020822234
-0.016472979 0.013644114 -0.027971208 0.010771044 0.009499788 0.01011712 0.014706798 -0.015988084
0.001625883 -0.0140328305 0.0005089236 0.012981703 0.03668362 -0.0146797765 0.035500236 -0.01360719
0.008115579 0.008599796 -0.018192362 0.0068403855 0.026959082 0.002335831 -0.013792952 -0.0006670091
-0.01826969 0.0025505845 0.0010270338 -0.0004564098 0.0069072545 0.012353092 -0.0006851779 -0.00080054114
-0.0018030439 -0.010090933 -0.020896493 0.0053320793 -0.0050671273 0.013760973 0.0148172835 -0.0020944902
-0.008960338 -0.00860883 0.0034548324 -0.0132825645 0.03265849 0.009726222 -0.02404109 0.0022066273
-0.013479075 0.001349542 0.000973744 -0.013058217 0.028339317 -0.004498924 0.0011254734 0.011768427
0.0067882533 -0.018065603 -0.006708684 -0.002313789 0.009506664 0.013894964 0.009569594 -0.016902018
0.004109958 -0.015704997 0.0021473686 0.0011198518 0.014250549 0.007912156 0.028445525 0.006388479
0.0052965702 -0.023679823 -0.013993987 -0.018373825 0.014990783 0.009217816 -0.0066585056 -0.015614211
0.015133734 0.002415738 0.0075999536 -0.017343571 -0.026508985 0.0012237391 0.008424842 0.0064079477
-0.00079203054 -0.005441854 0.01410004 -0.018334782 -0.00852149 -0.010490934 -0.0034455014 0.008666296
-0.019313574 0.004197139 0.0021667206 0.009647489 -0.015679188 0.0007361367 0.02273985 -0.00014820827
-0.0006663455 -0.0035474824 0.0052669 -0.013008611 0.036744945 0.0034781084 0.039279163 0.0018791014
0.006498431 0.012132215 0.012576471 -0.008333205 -0.0013153688 -0.009379508 -0.0030119896 0.00062261114
0.010382067 -0.003893874 0.012560538 -0.017927522 -0.011693437 0.011765423 -0.0058234255 0.011190354
0.018047847 0.005288002 0.019485898 -0.01063456 0.0051784604 0.0009115408 0.018110452 -0.0047089197
-0.0033937704 -0.0030514388 0.004643772 -0.012305929 0.020485872 0.005972134 0.048092123 -0.004450199
