model/lime.lite (tflite, 84716 bytes, 42 tensors)

model_1/bn_Conv1/FusedBatchNormV3 f4 [16]
00000000: b212 b4bf 0741 a440 7899 abc1 b80b b33e
00000010: 0278 3e40 0000 6e40 be4f 4140 76e2 f940
00000020: 1612 3040 882e 323f 3efb 0340 204c be40
00000030: 3885 9ebf d68a 4440 3cf6 0240 e3b5 08be
-1.4068205 5.132938 -21.449936 0.34969878 2.9760747 3.71875 3.020492 7.808894
2.7511039 0.6960225 2.0622096 5.9467926 -1.2384405 3.0709739 2.046279 -0.13350634

model_1/expanded_conv_depthwise_BN/FusedBatchNormV3 f4 [16]
00000000: c629 9abe 3f11 2440 99ce 7d40 450b 5e40
00000010: a400 f73f f966 5540 b95e 9d40 a031 7a40
00000020: 3228 53be e574 e53f 1cbe b740 867b 2241
00000030: 69de a5be 9ad5 ed40 cd5e ff3f 2b36 d5be
-0.30109996 2.5635526 3.9657347 3.4694378 1.929707 3.33441 4.917813 3.9092789
-0.20620802 1.7926298 5.7419567 10.155157 -0.32396248 7.4323244 1.9950806 -0.4164289

model_1/block_1_expand_BN/FusedBatchNormV3 f4 [48]
00000000: 9f6f 0240 f040 823b 6ab3 4b40 462f f83f
00000010: ed99 fa3f 3083 0240 ef89 7040 eaa4 f2bd
00000020: 6d33 62bd 1ace 59bf 011c b93f b0b6 493f
00000030: 02fe 0d40 7913 26be e7bb 2740 5f42 4e40
00000040: b210 06be 9ddc 4bbf 0d73 74be 77a4 6f40
00000050: ec7c 963f 422c 22be 66a9 ffbc a59d 3e3f
00000060: c916 7540 90b2 03bf e6ea 5c3e fb8d 9f3f
00000070: cae7 883f 5d01 3740 1104 3e40 d0b6 1440
00000080: ae53 1f3f 8021 5140 00c7 513d a8c6 98bf
00000090: 5e02 b73f b517 ab3f 2c26 bcbe 976e 5640
000000a0: 0473 3040 8e05 0f40 5535 14be 5a68 62bf
000000b0: edd7 a240 3780 4e3d 0df7 3540 5e40 573f
2.0380628 0.0039750263 3.1828256 1.9389427 1.9578224 2.039257 3.7584188 -0.11847861
-0.055224825 -0.8508011 1.4461671 0.78794384 2.2186284 -0.16218366 2.6208436 3.222801
-0.13092306 -0.79633504 -0.23872013 3.7444131 1.1756873 -0.15837196 -0.031208705 0.74459296
3.8295157 -0.5144434 0.21573982 1.2465204 1.0695736 2.8594582 2.9689982 2.323658
0.6223706 3.2676697 0.05121517 -1.1935625 1.4297597 1.336661 -0.36747873 3.3504999
2.75702 2.234714 -0.1447347 -0.8844048 5.088858 0.050415244 2.8432038 0.8408259

model_1/block_1_depthwise_BN/FusedBatchNormV3 f4 [48]
00000000: f1a7 c240 d4e8 7e40 e308 0841 6c02 9b40
00000010: 84bb a33e d26a 1540 315f 0f3f ce3e c33f
00000020: 54ec f53f f7a9 6f3f 6493 ab3f de57 733e
00000030: 22ff eac0 7181 34bf 8ca0 2340 a167 943e
00000040: 9572 0fbf 34d1 d13e f0a2 a8bd 60ee 503e
00000050: 4c52 ccbf b821 36bf 812b be40 c590 8f3f
00000060: 983e debe 4d7e 2940 66c9 d13f 6690 5c3f
00000070: 60cd 12bf d9db fc3e 5f3f c0be d13d 00c1
00000080: c39a 1240 961e 783f 03f4 2240 7d65 8b3e
00000090: 4a87 5b3f 68a4 723e 0a96 9040 fe0a 1fc0
000000a0: 449d 553f 853a abc0 a5b7 a63e 2962 833f
000000b0: 0c85 443e 3f4c ba40 47f2 113f c6b5 99bf
6.0830007 3.9829607 8.50217 4.8440456 0.31979 2.3346448 0.56004626 1.5253541
1.9212747 0.9361872 1.3404355 0.23763987 -7.343644 -0.7051001 2.556674 0.28985313
-0.56034213 0.40979922 -0.08234203 0.20403433 -1.5962615 -0.711452 5.9428105 1.1216055
-0.4340713 2.6483338 1.6389587 0.86157835 -0.5734463 0.4938648 -0.37548348 -8.015092
2.290696 0.9692167 2.5461433 0.27225867 0.8575331 0.23695529 4.5183153 -2.485046
0.83443093 -5.3508935 0.32561985 1.0264331 0.19191378 5.8218074 0.5701031 -1.2008598

model_1/block_2_expand_BN/FusedBatchNormV3 f4 [48]
00000000: e9af 8b40 1623 0c40 d9f1 c73f 8bcd 4740
00000010: 31db 0e40 b703 a240 a1b6 fcbf 61a4 79be
00000020: 60ea 103f 1c71 b73f cd40 0f40 52ad 263e
00000030: ca34 883f e144 c2be 2c6b e53e 263f 71c0
00000040: 9a78 c93f fbeb 8440 d558 f0be 57a8 2840
00000050: 2625 a03f 98f3 783f 745f 7c40 9355 efbe
00000060: 78da a43f 1e0d 983f 8de0 7f40 4bd2 6b40
00000070: ced1 66bd f58e 26c0 7439 b93d 33ed 3f3f
00000080: 7811 fcbf c9fe 0840 bc7d 7e3f 0150 f53f
00000090: ccd4 6940 805f b13f ffad 1a40 b821 9140
000000a0: d968 18bf 5424 2a40 8f8b 023f f15e cb3f
000000b0: 9d21 9b3f 62a6 833f 75ec 9ebf cf33 2b40
4.3652234 2.1896415 1.5620681 3.1219203 2.2321284 5.0629535 -1.9743234 -0.24379112
0.5660763 1.4331393 2.2383301 0.16277054 1.064111 -0.37943175 0.44808328 -3.7694793
1.573993 4.153806 -0.46942773 2.6352746 1.2511337 0.97246695 3.943326 -0.46744975
1.2879171 1.1879003 3.9980805 3.6847103 -0.05635243 -2.6024754 0.090441614 0.7497131
-1.9692831 2.1405509 0.99410605 1.916504 3.653613 1.3857269 2.4168699 4.535366
-0.59534985 2.6584673 0.509942 1.5888349 1.2119633 1.0285151 -1.2415911 2.6750371

model_1/block_2_depthwise_BN/FusedBatchNormV3 f4 [48]
00000000: e025 83c1 a0b8 033c 18da dc3f 9c8b 103e
00000010: 1e59 203f cace 4abf 0a00 883f ec1d 6340
00000020: 6862 413d 3d4e 9440 1fe6 c53d c182 8a40
00000030: 7fd8 a8bf b767 70be 329f 2040 98ee cf3f
00000040: 0c0d d4bd 3156 7940 372d 2640 87a0 a43f
00000050: 7736 cb3e e8c4 43be e167 6fbe 2a96 0d40
00000060: f7c6 bcbf 4e68 6f40 faa4 c541 7e3b 6240
00000070: 8ba0 273f a48e 5d3f bcb9 83bd fa55 4a3e
00000080: cbbb 873f 96e6 3640 8c45 95bf 4f48 0d40
00000090: 2419 5bc0 cacb 1040 6eb3 dac0 b2a7 2240
000000a0: 9cb5 4b40 0668 683f 3b11 d13f 87ab 09be
000000b0: 621e 1740 2998 423e 9405 6c3e 62c1 e0bd
-16.393494 0.0080396235 1.7254057 0.14115757 0.6263598 -0.79221785 1.0625012 3.5487013
0.04721299 4.6345506 0.09663033 4.328461 -1.3191069 -0.23477064 2.5097165 1.6244688
-0.10354051 3.8958857 2.5965097 1.2861489 0.3968999 -0.19118083 -0.2337947 2.2122903
-1.4748219 3.7407413 24.705555 3.534881 0.65479344 0.8654578 -0.064319104 0.1975936
1.0604185 2.8578238 -1.1661849 2.2075384 -3.4234095 2.2624383 -6.834403 2.5414853
3.1829596 0.9078373 1.6333383 -0.13444339 2.3612294 0.19003357 0.23049003 -0.10974385

model_1/block_3_expand_BN/FusedBatchNormV3 f4 [48]
00000000: 6caf 583e 4f6d 2d3f 07df 0c3f 66d8 823d
00000010: fefa 0c40 4f55 8040 c080 9d3f ab8d ccbb
00000020: b3a3 f5be 63e0 c6be 0c41 623f 9cdd c23e
00000030: baa9 a13f 1b61 323f 2b0c 6440 3183 a43f
00000040: fa3b c63e 4856 c3be a37a 0cbe c29c 6d3f
00000050: d2a4 2bbf 3fdd 1f40 af07 6d40 8b38 bf3f
00000060: e398 ca3f 314b e33d 23a6 e040 e342 f13f
00000070: 40ce f43f ea96 82be 7292 2540 3696 963f
00000080: c1ce ac3e cca7 d33c 66b4 6840 5d81 f53f
00000090: 4a31 abbf 6920 0f3e 9cac 82be 89cc e83f
000000a0: e763 393e ce98 f8bd 6b9e aabe 6d2b 283d
000000b0: 9326 f53f a8e9 ab3f 269b 073e dd65 8d3f
0.21160668 0.67744917 0.5502781 0.06388931 2.2028193 4.0104136 1.2304916 -0.006242474
-0.47976455 -0.38843068 0.88380504 0.380597 1.2629921 0.6967942 3.5632427 1.2852536
0.38717633 -0.38151765 -0.13718657 0.9281732 -0.6704837 2.4978788 3.703594 1.493913
1.5827907 0.11098326 7.0202804 1.8848537 1.9125443 -0.25505763 2.5870633 1.1764591
0.3375149 0.025836848 3.6360106 1.9180104 -1.3374417 0.13977207 -0.25522316 1.8187419
0.18104516 -0.1213852 -0.33323988 0.04105704 1.9152397 1.3430681 0.13242778 1.1046711

model_1/block_3_depthwise_BN/FusedBatchNormV3 f4 [48]
00000000: 8035 f63d 1594 aa3f f89a ffbd 355b 1d40
00000010: 88db 903f 3647 0f41 40d2 a1be a7f1 ba40
00000020: 9c21 0f3f 20e3 af3f 93ba 8d3f 105b 563e
00000030: 10b0 3ebe 4059 403f f42e 213e 8082 e13b
00000040: 93a0 b8bd 8007 39bd 2010 503e f874 babe
00000050: 3a38 623e 5ef2 d7bd df29 d5be dcbb 04c0
00000060: cc5a afbe e7e4 9140 7eca 4240 9a96 ee40
00000070: 5121 1c3f 1adf 163f f3e2 8cbe 70d4 25be
00000080: b923 6c3f 244c 2d3e 0453 b33f 00fa 85bd
00000090: e7d1 b840 00a8 323c ff4f b640 aa14 923e
000000a0: e8bc 6c3e 234f b640 0061 2a3d e04a ae3d
000000b0: 935d b53f 4a87 d0bd f50a 133f 869d 9b3f
0.12021923 1.3326441 -0.1248073 2.4586918 1.1316996 8.9548855 -0.3160572 5.8419986
0.5591066 1.3741188 1.1072563 0.20933175 -0.1862185 0.75136185 0.15740567 0.006882012
-0.09015002 -0.04517317 0.20318651 -0.36417365 0.22091761 -0.10544275 -0.41633508 -2.073966
-0.3424896 4.559192 3.0436091 7.455884 0.60988337 0.58934176 -0.275169 -0.1619432
0.9224201 0.16923577 1.4009709 -0.06541824 5.775623 0.010904312 5.697265 0.2853139
0.23118937 5.6971602 0.041596413 0.08510375 1.4169182 -0.10182054 0.57438594 1.2157447

model_1/block_4_expand_BN/FusedBatchNormV3 f4 [96]
00000000: bf5a 2140 66bd b53e 07ba c33f e21e 29bf
00000010: d812 d03f 6dd2 673f ab86 4340 4504 6640
00000020: 8d16 09bf 3cc5 e43f 3894 c33f 7201 583f
00000030: 1057 3340 2573 9940 6a63 3fbd 3382 30bf
00000040: 5e68 1140 da54 1240 4d42 d33e c528 f8bd
00000050: c0d7 74be c030 1940 ae9a c53f 4293 523f
00000060: 2002 ed3f 34fe 0440 b462 ba3f 1ad2 593f
00000070: 576b 053e 9b05 843d 34d0 c03f 8135 f53f
00000080: 14e8 0240 2a70 8e3f b569 e13f 9834 c9be
00000090: 31a3 1040 98b4 2b40 8d1c f43e 83f6 773f
000000a0: 4d71 063f edd9 f33f 60c6 ff3f 67ce 3c3f
000000b0: 5817 793f ebff 5840 8dfe 2b40 8c6f b63f
000000c0: 0d90 c43f ad9c 6e3f f939 243e b6b9 38bf
000000d0: 0104 2540 79a7 c13f 3649 1340 66aa e23f
000000e0: 685e a0bc 683e d33f e337 593f 1a2b db3f
000000f0: 2650 cd3f 9189 ab3f 52cd 783f 1038 3640
00000100: 472b 883f 163a 883f a42e f33f 64ae d6be
00000110: 98c2 2240 1658 8a3f 3c25 f53f d4d4 16bf
00000120: 422b a9be 25fe 9e3f 4241 cf3e af9f 9f3f
00000130: 1744 1640 894d 8f40 6912 d63f 8804 9dbf
00000140: ae45 863f 2d14 0dc0 53ad b9be a77a 5a3e
00000150: eb4d cc3f 0c19 b53f 9dda bc3f 3118 be3f
00000160: 93c9 e03f 3745 d13f 4352 b63f ff4c d13f
00000170: e9e2 0240 4a6a 3340 bda0 3dc0 e18d 4840
2.5211637 0.35496062 1.5291146 -0.6606275 1.6255751 0.9055546 3.0550945 3.5940106
-0.53550035 1.7872691 1.5279608 0.84377205 2.8021889 4.7953057 -0.046725668 -0.6894867
2.271995 2.286429 0.4126152 -0.12117151 -0.23910427 2.3936005 1.543783 0.8225595
1.8516273 2.0780153 1.4561372 0.85086215 0.13029228 0.06446382 1.5063539 1.9156953
2.045415 1.112798 1.7610384 -0.39297938 2.2599604 2.6828976 0.47678033 0.9686052
0.52516633 1.9050881 1.9982414 0.73752445 0.97301245 3.39062 2.6874115 1.4252791
1.5356461 0.9320782 0.1603774 -0.7215837 2.5783694 1.5129234 2.3013434 1.7708251
-0.019576266 1.650342 0.848509 1.7122529 1.6040084 1.3401357 0.97188294 2.8471718
1.0638207 1.0642726 1.8998609 -0.41929924 2.543127 1.0808132 1.9151988 -0.589185
-0.33040816 1.2421309 0.40479475 1.2470607 2.3479059 4.4782147 1.6724368 -1.2267008
1.0490015 -2.2043564 -0.36265048 0.2133585 1.5961279 1.4148269 1.4754215 1.4851133
1.7561516 1.6349248 1.4243854 1.6351622 2.0450995 2.8033624 -2.9629357 3.1336596

model_1/block_4_depthwise_BN/FusedBatchNormV3 f4 [96]
00000000: 5432 e83f 602e 7bbf 2974 273f ef18 0840
00000010: 87e5 cebe ca1c 3fbf c693 6ec0 9031 083f
00000020: c965 99be a0c6 f33a 1146 d63e 4490 c0be
00000030: f81e 0f3e 3c22 55c0 eea0 6d3f 563b 6dbf
00000040: 6a29 a0be c81a 7140 ac23 cd3f 416d 223f
00000050: 9ce4 c0bd 00f1 7a3c e09f 59bb 40cf 063d
00000060: e7eb 6a40 a47f 88be f809 763d 6c67 eabe
00000070: b513 23bf 0754 2cbf 3ab7 6c3f 7619 adbf
00000080: 3b80 5fbe f857 83be 0054 7a3d da0e 1340
00000090: fe3b 3d3f f1fa 6fbe 3a9b 923f c470 333d
000000a0: 949e d8bd c644 163f 3607 5bc0 da49 8bbf
000000b0: 90d5 bdbf 9ff7 5240 16c1 9fbe 3dfe 5040
000000c0: bb37 2b40 b120 10c0 80da d93b 68a6 923f
000000d0: b0e8 b83f 00a1 ffba 006a e5bf 4462 b43e
000000e0: b029 5ac0 dd25 753e 02b9 a23e 7191 a7be
000000f0: 00e2 183c b626 2abe 1aea 66c0 6c03 fcbd
00000100: c0b3 d43e 7e16 3240 70ea 1e40 d981 e83f
00000110: 0fa4 83c0 3a9b 1b3e 8f7c 08c0 30fd 96bc
00000120: 7e17 be40 eb8d bc3f 86c2 59bd 5032 943d
00000130: f910 1741 c6aa 0040 6832 9bbd f950 e9bf
00000140: a06f b0bd 1f23 03c0 70d7 b9bc 02a9 e6be
00000150: ab02 853e 80b9 dbbc 4cb8 ecbd 9ef2 b33d
00000160: b257 bc3e 745f e2be f0de 2cbd 803c e43b
00000170: 22a2 bb3e 1fdc 4c3f 6de8 ac3f a6a1 8140
1.8140359 -0.9811764 0.6541162 2.1265218 -0.4040949 -0.74653304 -3.7277694 0.53200626
-0.29960468 0.0018598624 0.4185033 -0.37610066 0.13976657 -3.3302145 0.92823684 -0.92668664
-0.31281596 3.7672596 1.6026511 0.6344796 -0.09418604 0.015316248 -0.0033206865 0.032912493
3.6706483 -0.26659882 0.0600681 -0.4578203 -0.63701946 -0.67315716 0.9246708 -1.3523395
-0.2182626 -0.25653052 0.061115265 2.2977815 0.73919666 -0.2343557 1.1453621 0.043808714
-0.105771214 0.5869869 -3.4223151 -1.0881913 -1.4830799 3.2963636 -0.31202 3.2655175
2.6752765 -2.2519953 0.0066483617 1.1457033 1.444601 -0.0019502938 -1.7922974 0.3523122
-3.4087944 0.23940225 0.31781775 -0.3272815 0.009331226 -0.1661633 -3.6080384 -0.1230534
0.41543388 2.7826228 2.483059 1.8164626 -4.1137767 0.15195933 -2.1326025 -0.018431276
5.9403677 1.473081 -0.053164028 0.07236159 9.441644 2.0104232 -0.075779736 -1.8227836
-0.08615041 -2.0490186 -0.022685736 -0.45050818 0.25978598 -0.026821852 -0.11558589 0.0878651
0.36785656 -0.4421345 -0.042204797 0.00696522 0.36647135 0.8002338 1.3508431 4.0509825

model_1/block_5_expand_BN/FusedBatchNormV3 f4 [96]
00000000: adbd 023f 69cb b73f aeab e13f 6bf0 1240
00000010: 6ecd 4340 b5de 61bf 5d44 3fbf b86b d63f
00000020: a528 1140 4433 a6bf 2b20 2940 e213 813f
00000030: 7705 ab3f 31e3 0e40 362c 1a40 2561 203f
00000040: b65c c43e e776 a13f 0980 0d40 feb5 7a3f
00000050: 9a7e 33be fe10 ba3d 5067 f93f d633 16bf
00000060: 2741 2340 45db 183e c0ac 0a40 66c5 be3f
00000070: 8200 d33f 5434 6440 fc3f 3840 6a16 1e40
00000080: cf81 d53f 5689 89be 41e4 0240 214e 083f
00000090: 96d4 d13e db8a bd3f 71b4 2640 4ddc ecbe
000000a0: 16a9 fc3f 40bc df3f 2a23 3240 5aa4 7ebf
000000b0: 9b67 5540 31f5 c03f db41 e13f 730b 2f40
000000c0: c77c 8840 696f 0c40 be78 a8bd 8f30 ce3f
000000d0: dc9a 8bbf 489e 8fbd 7b71 71bf 94a6 963f
000000e0: a9d5 c4bd 86f7 e63f e936 0540 2a07 c33f
000000f0: 6b44 ba3f cca4 a93f a46f b63f f551 873f
00000100: a2ae 1c40 5ac1 f13f f793 b53f 7cdd a5bf
00000110: ffd6 d03f 00c1 3dbf 34b1 9e3f 6787 c33f
00000120: b0e1 0940 53e5 643f a39e bfbf 8521 adbf
00000130: 40b5 d63f 3531 3bbd 0b9e 3e3f fdf6 d4be
00000140: 9a2b 0140 a91d cd3f a176 483f 7652 fc3f
00000150: 9b6c 8b3f 9857 9c3c f83c 1c40 45dc 7240
00000160: d1a6 a63f 2261 1340 6820 a33f d28d f7bd
00000170: 28f2 b43f 7dfe b13f bdfa a13f ab27 ce3f
0.5107067 1.4358951 1.7630517 2.295924 3.0594134 -0.8823045 -0.7471369 1.6751623
2.2681057 -1.2984395 2.6425884 1.0084193 1.3361043 2.2326167 2.4089484 0.6264823
0.38351983 1.2614411 2.2109396 0.9793395 -0.17528763 0.09085272 1.9484653 -0.58672845
2.5508516 0.14927395 2.1667938 1.4903991 1.648453 3.5656939 2.8789053 2.470118
1.668024 -0.26862592 2.0451815 0.53244215 0.40982503 1.4808 2.6047633 -0.46261826
1.9739101 1.7479324 2.7833962 -0.9946953 3.3344486 1.5074826 1.7598222 2.7350738
4.2652316 2.1943 -0.08226155 1.6108569 -1.0906634 -0.07012612 -0.9431378 1.1769586
-0.09611065 1.8044288 2.0814764 1.5236561 1.455213 1.3253417 1.425282 1.0571886
2.4481587 1.8887131 1.418578 -1.2958217 1.6315612 -0.7412262 1.2397828 1.5275697
2.1543999 0.8941242 -1.4970287 -1.3525854 1.6774063 -0.045701224 0.74459904 -0.41594687
2.0182862 1.6024677 0.78306013 1.9712665 1.0892519 0.019084737 2.4412212 3.7946942
1.3019658 2.3028035 1.2744265 -0.12087597 1.41364 1.3905789 1.2654644 1.6105856

model_1/block_5_depthwise_BN/FusedBatchNormV3 f4 [96]
00000000: e2b3 2040 8040 b840 7618 c0bd 4289 313e
00000010: 76ae 6440 4d38 59bf a824 acbc 23a8 34be
00000020: 6c56 f63f 090f 1f40 d81d 3ebf e455 c73c
00000030: 7d6a 9f3e b073 ffbd c072 1340 90b8 b4bf
00000040: baf9 61bf 7ed2 273d 7078 acbe 1671 863f
00000050: 3a6a 59bf a4ad 3a3f f1bd 34bf 8684 373f
00000060: 1251 eb3f 98e2 393e a861 61bf ce9f 3b40
00000070: 0907 eb3f c217 0cc1 4e5a 9f3f e007 9840
00000080: d018 2240 1712 c4bf 38e7 a53d 9891 73be
00000090: 9350 39bf c4d3 bfbe a55b 183f d152 ffbe
000000a0: 06bf b2bf a513 aabe 2bf9 0dc0 72aa 8a3d
000000b0: a151 4041 f6a6 5bbe 26dd a83f d0b9 27bf
000000c0: 613f 0dc1 1ebd 0b3e 5b4d b1bc f05b d9bc
000000d0: 583e dcbe dbcb 3440 7742 6fbf 56ac f13f
000000e0: 75de 2d40 d3bf 8fbe fec2 c23f 22dd f43e
000000f0: 8f9e 3fc0 740f 45be aea7 d73d 24f7 693e
00000100: 9c6b 07bf 2e42 e03f e2a5 83be 6fdc 0ac0
00000110: dc42 9cbf e2ee dc3e 109a 11bd bc37 80be
00000120: c546 cc3e 98ad 523e 4c82 1abf 745e f1bf
00000130: 5059 3bbc 78ce 13bd f881 2a40 148b b1bf
00000140: 1e78 c3bf ca42 1dc0 96a9 3ebe e8ed 69bd
00000150: ceda 5c40 25a3 d3bf 1d1a 34bf 8a97 4fc1
00000160: 2d9c 10c0 7122 a23f eefc 82bf 7831 b23f
00000170: fcaf cd3d 4632 6fbe 361d 89bf 0a40 ce3d
2.5109792 5.7578735 -0.093796656 0.17337516 3.5731483 -0.84851533 -0.021013573 -0.17642264
1.9245124 2.4852927 -0.7426429 0.024332948 0.31135932 -0.124732375 2.3038788 -1.4118824
-0.8827168 0.040972225 -0.33685637 1.0503261 -0.84927714 0.72921205 -0.7060233 0.7168659
1.8384116 0.18152845 -0.88039637 2.9316287 1.8361522 -8.7558 1.2449434 4.7509613
2.5327644 -1.531802 0.08100742 -0.23786008 -0.7238857 -0.37466252 0.5951484 -0.4986787
-1.3964546 -0.33218113 -2.218333 0.06770791 12.019929 -0.2145041 1.3192489 -0.655179
-8.827973 0.13646361 -0.021643331 -0.026533097 -0.43016315 2.8249424 -0.9346079 1.8880718
2.7167027 -0.28076038 1.5215757 0.4782496 -2.9940526 -0.19244176 0.10530029 0.22848183
-0.52898574 1.7520196 -0.25712496 -2.1697042 -1.2207904 0.43151003 -0.035547316 -0.25042522
0.39897743 0.20574033 -0.6035507 -1.885695 -0.011434868 -0.036085576 2.6641827 -1.3870568
-1.5271032 -2.4572015 -0.1861938 -0.05711165 3.4508548 -1.6534163 -0.70352346 -12.974497
-2.2595322 1.2666761 -1.0233438 1.3921347 0.10043332 -0.23359022 -1.071204 0.10070808

model_1/block_6_expand_BN/FusedBatchNormV3 f4 [96]
00000000: 9c11 34bf 7147 c73f 99d4 1840 0b94 603f
00000010: a382 92bf d541 bdbf 6bb0 5340 4124 1e3f
00000020: 4886 163f cc74 32bf 6221 0140 e3f7 d2bd
00000030: 7e03 28c0 822a 3240 7903 4440 4859 9f3f
00000040: 30ac f13f 37e3 b63f c264 ecbf 61f7 dbbf
00000050: f693 1c3f d121 2e40 10bc 4140 2103 ca3f
00000060: 5cc1 c53e d115 f53e c1b3 3c40 73b1 893f
00000070: a52e e53e 05c0 f6bf abaa bf3f bad5 4dbf
00000080: da9d 9cbd 890d 923f 21c2 193d dfee 803e
00000090: 19d1 f33f 43f4 843f 3512 25bf 41ed dd3f
000000a0: 9dd6 973f f6cc 2340 a7e5 c83f 9882 1340
000000b0: 10e0 fd3f 8346 813f 77c4 103f 484e 0540
000000c0: 104f a73f 5565 aabf 6b92 c4bf 782e 583d
000000d0: 24c6 70be 03e0 bebe 8bad 423f e014 0cbc
000000e0: 4316 d93d e46e 81be 9c5e c8bf 7562 e33f
000000f0: 9335 38bf 2e6e 0e3f 4426 8fbe 1ffa 57bf
00000100: 0a15 f6bf c130 ee3f 83eb 0a40 f57c bb3e
00000110: bee6 92bf fe5e 863e 57b1 bf3e bf00 f03e
00000120: 5d31 a43f 590f edbe 2e11 1a3e 5f88 0840
00000130: 465e 1fbe 1422 ee3f 3b36 e93f 7c93 56be
00000140: b431 ba3f f442 9f3e 1f2a efbd 66e3 b13e
00000150: 2dd8 ed3f b239 1640 5579 1040 3d57 723e
00000160: 98fd 333f 21e6 fc3f f14b 51be 6b64 03c0
00000170: a555 173e 2a39 84bf b88f 1cbf 21da 03bf
-0.7033937 1.5568677 2.387976 0.87725896 -1.1446117 -1.4785715 3.3076427 0.6177407
0.58798647 -0.6970947 2.0176625 -0.10301187 -2.6252131 2.7838445 3.062712 1.2449121
1.8880672 1.428809 -1.8468249 -1.7184869 0.6116327 2.720814 3.0271034 1.5782205
0.38624084 0.47868207 2.9484713 1.0757278 0.4476215 -1.927735 1.4973959 -0.80404246
-0.07647295 1.1410381 0.03753865 0.25182244 1.9048187 1.0387043 -0.64480907 1.7338029
1.186237 2.5593848 1.5695084 2.3048458 1.9834003 1.0099643 0.5654978 2.082903
1.3071003 -1.3312174 -1.5357183 0.05277869 -0.23513085 -0.37280282 0.76046056 -0.008549899
0.10599949 -0.25279915 -1.5653872 1.7764422 -0.7195675 0.5563687 -0.27958882 -0.8436603
-1.9225171 1.8608629 2.1706245 0.36618772 -1.1476667 0.26244348 0.37439987 0.4687557
1.2827564 -0.46300772 0.15045616 2.1333234 -0.15563306 1.860415 1.8219675 -0.20954698
1.4546418 0.3110577 -0.11677956 0.34743804 1.8581597 2.3472714 2.2574055 0.23666091
0.7030883 1.975773 -0.20439126 -2.053004 0.14778765 -1.0329945 -0.611568 -0.51504713

model_1/head/BiasAdd/ReadVariableOp f4 [32]
00000000: 4840 02bd e132 72bc ee93 d8bc 2f02 c2bc
00000010: 084d a2bd 3a18 33bc eefe 68bd fa16 10bc
00000020: 3903 2dbc 57e1 cb3d 5dbe 19bc 7c1d 60bd
00000030: 70dd 8ebd 4415 72ba cb19 fcbc 50d3 2cbc
00000040: 8958 a9bd eb2e 93bd 1888 833d 329b 5bbd
00000050: 5369 02bd 9404 5dbc e4c0 39bd e1e0 5c3d
00000060: 73c5 8bbd 6d22 6cbd e06a 3ebd 9c60 16bd
00000070: 69dc c73d a854 c4bc fa17 4bbd 890e d93d
-0.031799585 -0.014782638 -0.026437726 -0.023682682 -0.07924849 -0.010931069 -0.056883745 -0.008794541
-0.01055985 0.099550895 -0.009383765 -0.05471562 -0.069758296 -0.0009234736 -0.030774018 -0.010548428
-0.0826884 -0.07186683 0.06422442 -0.053614803 -0.031838726 -0.013489861 -0.04534997 0.0539254
-0.0682477 -0.05765002 -0.046488643 -0.036713228 0.09758837 -0.023966148 -0.049583413 0.105984755

model_1/expanded_conv_depthwise_BN/FusedBatchNormV3;model_1/expanded_conv_depthwise/depthwise;model_1/block_5_project/Conv2D f4 [1, 3, 3, 16]
00000000: e81c 09c1 1080 d43d 814b 39c0 0256 dfbf
00000010: a4c4 6d3e 9b47 0bbe ed3e a43f addb 21be
00000020: 2f2b 87bd f523 34bd 69f6 6abd f721 6a3f
00000030: ea37 7bc0 07f9 863d 96c4 143f 0ac2 41c1
00000040: 16db 8040 3ec1 0c3e 46dd 92c0 75d1 df3f
00000050: 0e7f 443f 140d 85be 884a 0240 d536 87be
00000060: 2f89 7ebd d68a e43f e8a2 80bf 964d d03f
00000070: e084 4fc0 4f0b 9f3d 8291 ae3f 399e 82c0
00000080: 3321 f43f 8411 febd 1a8f 4d40 48c2 eebc
00000090: e241 e1be 6171 0b3e e590 bfbf c44d 223e
000000a0: 0529 8ebd 8cee c4be 95dc 003d 7348 10bf
000000b0: 7694 f23f 64a5 bd3c 06b8 8abf 1907 99c0
000000c0: ba65 21c1 556d 2f3f 31c1 58bf 6f3a 3c3e
000000d0: dfde 88be dff2 063d 692a e3be e425 de3c
000000e0: 1256 a7bc 4181 ce3b cdea e63c 0949 59c0
000000f0: 3cf8 c1bf b68c e43d 33e0 a0be ac72 13c0
00000100: 99f9 c6c0 e202 5ebe af96 06c0 d266 4fbe
00000110: 2b1f 44bd 1432 57bd f75f 0c3e 1ed4 6fbd
00000120: 41f9 a0bd 4730 a0bf 9150 2c3e 8276 b5be
00000130: 88e6 4dc0 37ed d9bf 7800 403c 51c5 7340
00000140: 5453 8e3f 2b54 413c 7630 1240 3058 dd3c
00000150: c35e 693c 350e 8b3d ca09 cabe 9cde 893d
00000160: 90ec bcbd e9e2 b83d fd89 41bc e2a1 e1bc
00000170: 6276 29bf 1fec 233e f65a 1cbd 96bf e540
00000180: 817c 12c1 3334 c5be 344a 1b40 6889 e73c
00000190: 8245 28bd adb4 a43d 8c3a 1cbf f3b5 d93d
000001a0: 519a 61bd 0193 0e3b aea7 f23a 37c2 333e
000001b0: b8b3 9e3f 7557 de3c f40f 92be 5c45 7040
000001c0: 5f50 e83f c714 8fbc 3ad8 923f 5bbc cbbc
000001d0: 7069 29be 1ddd a63d c5df 07bf beff 283d
000001e0: e1f2 b8bd 94ee 3dbe 3dfe a23b 0eca 2940
000001f0: 4e78 e4bf 9989 c53b 6858 9abe 4270 93c1
00000200: 67fd d03f 8a8e 03bd 768e 3b3f 9fce 67bb
00000210: 9085 bf3c 3408 e63c 2ef3 1c3e 4c62 363d
00000220: 72be a9bd 56f9 743d ee41 a1bb 6a24 7ac0
00000230: b2ac 5340 56c2 283d 9a63 3d3e aab9 a8c1
-8.569557 0.103759885 -2.8952334 -1.7448123 0.23219544 -0.13601534 1.2831703 -0.15806456
-0.066000335 -0.043979604 -0.0573639 0.91458076 -3.9252877 0.06590467 0.58112466 -12.109873
4.026744 0.13745591 -4.589511 1.7485796 0.7675637 -0.2598654 2.035799 -0.2640902
-0.062142547 1.7854869 -1.0049715 1.6273677 -3.242485 0.07765829 1.3638155 -4.0818143
1.9072632 -0.124056846 3.2118592 -0.029145375 -0.43995577 0.1361747 -1.4966093 0.15849978
-0.069414176 -0.38463247 0.031460363 -0.5636055 1.8951557 0.023150153 -1.083741 -4.7821164
-10.087336 0.685262 -0.84669787 0.18381666 -0.26732537 0.032946464 -0.44368294 0.027117677
-0.020426784 0.0063020294 0.028188134 -3.3950827 -1.515388 0.11159651 -0.3142105 -2.303874
-6.2179685 -0.21680787 -2.102947 -0.20254067 -0.047881287 -0.052537993 0.13708483 -0.0585519
-0.078600414 -1.2514733 0.16827609 -0.35441977 -3.2171955 -1.7025517 0.011718862 3.8089182
1.111918 0.011799852 2.2842078 0.02701959 0.014243784 0.06789819 -0.39460593 0.067319125
-0.09224808 0.09027655 -0.011812684 -0.027543012 -0.6619626 0.16008042 -0.038172685 7.179637
-9.155396 -0.38516387 2.426404 0.028263763 -0.041081913 0.08042274 -0.61026835 0.10630407
-0.05507881 0.0021755102 0.0018513107 0.17554556 1.2398596 0.027141312 -0.28527796 3.7542334
1.8149527 -0.017465962 1.1472237 -0.024870088 -0.16544127 0.08147643 -0.5307582 0.04125952
-0.090307005 -0.18548042 0.004974155 2.6529574 -1.7849214 0.006028366 -0.30145574 -18.429813
1.6327332 -0.032118358 0.73264253 -0.0035370959 0.023379117 0.028080083 0.1532714 0.044527337
-0.08288278 0.059808098 -0.0049211895 -3.9084725 3.3074155 0.04120096 0.18495026 -21.090656

model_1/expanded_conv_project_BN/FusedBatchNormV3 f4 [8]
00000000: 4743 34c0 d765 8bc2 ddf7 53c1 7344 8ac1
00000010: 1e9a 29c2 0d7d 54c0 c4dd 00c2 c6fa 05c2
-2.8166063 -69.698906 -13.2480135 -17.283422 -42.400505 -3.3201325 -32.216568 -33.494896

model_1/block_1_depthwise_BN/FusedBatchNormV3;model_1/block_1_depthwise/depthwise;model_1/block_3_depthwise/depthwise f4 [1, 3, 3, 48]
00000000: ca6f a3be d7b4 67bd 0d72 37bd 30e5 82bd
00000010: c016 ab3d d0a4 90be 465f 11bf eedc a9bd
00000020: 3b4f f7bd ecca 28bd c3b5 ea3c 95bc 8c3d
00000030: 4e1c 6d3e 4f89 85c1 51d2 8d3e ac7a cbbe
00000040: 5457 53c1 7631 13bd 9328 153e a678 fabc
00000050: 51ca 2abc 838e 77be 8135 02bf ca42 97bd
00000060: 6d02 babd 9f22 94be e44c 84bd b8c0 09bd
00000070: 29f7 323f 860f 223d 303e 633e 1257 223e
00000080: e196 6dbf 794e 08bd c882 03bd fdae 3d3f
00000090: 7e8c 5a3c b19b 763f eb50 24be e231 a63e
000000a0: 9009 5abe 1f19 e2bd 3933 db3e b7f4 10bd
000000b0: a20a e4bc 0474 b7bd be2c 87bf 00a9 813e
000000c0: 3b1a 143f 1d12 e23c 4e81 2abe d6ef f6bd
000000d0: b733 4a3f 8364 70bf 12f0 65bf 9c93 cfbd
000000e0: 7d0b 8d3e 2f2f 83bd b5e7 62be 8ca7 023e
000000f0: 754e 783e facf 99c1 a6b5 c2ba ae34 143f
00000100: 8ad5 c1c0 607f 42bd 71c8 593e 31ce 2f3d
00000110: 67fe 013d c7f2 bcbe c444 15bf 50a7 86bd
00000120: 0593 88bc b2fe 93be 8ecc 03be f15b 6cbd
00000130: fe42 0cbf abf4 553d 02a7 12be adfc be3e
00000140: 6f93 703e f5c4 49bd d04b 593e e385 8f3f
00000150: abbb 133c 6d8c bd3f b97e f4bd eeb8 053f
00000160: b4fa b7be 1d8f 653d dd8c 033f bd16 2abd
00000170: f6ff c73b ec90 7cbd 586a c2bf f077 733e
00000180: 17b0 65be fba0 ca3d 4fda 053d f06a f2bb
00000190: b2c2 68bf 1194 4bbf 7322 dabe 0fa7 a5bc
000001a0: d5d6 d93e caa8 f7bb 6fd2 76be 4ff4 413d
000001b0: c7bf 413d 08e6 85c1 b9d7 71be c802 bbbd
000001c0: 725a 6dc1 67a8 15bc 2cee d83d 02a9 a73d
000001d0: 67c4 6bbd 3d4c 6ebe be7c 2fbe 9d88 c2bc
000001e0: 73b0 11bd d147 78bd dbb3 76bd d56b 40bc
000001f0: 704b fabd 3201 333d 0f73 82bd bda1 5b3d
00000200: 9408 453f 41bd ffbc 7bb6 703e af50 db3e
00000210: 3ff9 1a3c 95d2 2b3f 6d83 87bb d5e2 9c3d
00000220: 017e 62be 3ce9 203d af9b ff3c 5998 d9bc
00000230: ef95 d2bd c6db b33b ac88 2cbf 3c17 133d
00000240: 7e65 26bf f3a6 9bbe 7c0e 81be bc22 51be
00000250: 8628 1ebe 29f1 d23e 4ed2 2e3f fea5 fabd
00000260: 4f8f 00be b186 b9bd 1527 26bd f530 033e
00000270: 89b2 1f3f c8b6 72c1 1ce4 8c3d 6dd5 62bf
00000280: 9dcf 62c1 2ab5 13bd 77b5 b23e 6bdf 00bf
00000290: 5887 353e a119 82be 1d46 efbe 8c7f e2bd
000002a0: 75b8 c53d c727 87be 6f00 b1bd cec9 8cbd
000002b0: a9db 9e3f f8c0 00be a83a 983e 18ac 0d3f
000002c0: 39ec a3be dc73 fbbc d17d 6ebd 5df5 9f3f
000002d0: 2e73 c2bc 87f1 ccbf fa50 09be afe2 ba3e
000002e0: cdab 053e 59d7 ee3e 0d56 d33e b668 19bd
000002f0: fbf9 07bf c222 8fbe 21f8 723f eed2 913e
00000300: 563e 713f 8158 43be 9e01 3bbf 5d00 1abf
00000310: 42b6 e23f 14f8 9a3e 890a 253f 1b7c 1dbe
00000320: f786 f13e c5f3 e1bd 428b 63be e59a 263e
00000330: 8331 5c3f 9c1f 59c0 5986 71bc 454b 933f
00000340: 98eb dfc0 d5eb 58bd f877 f53e f94a 58bf
00000350: b483 083f c981 c7be 736d 0abf a981 d3bd
00000360: d804 a03e 339e 5ebe eef2 12be 0376 5abe
00000370: 3fb2 9abf 19ea 8bbe 86b3 34be 1814 603f
00000380: bbac 693e a8ed 2abd ce76 da3e 2f71 ed3f
00000390: 9670 33bd 02f3 22c0 4b27 02be 0b96 c03e
000003a0: c3c2 3e3e 0c35 833f 9498 083f 69cc 1ebd
000003b0: 721a 27bf 4185 99be 3119 bc3f 6294 a13e
000003c0: fbee cbbe bb0b 943d e195 b8be 710c cebe
000003d0: cd2e d7bf 7307 24be 9263 4d3e e6ef 35bd
000003e0: a488 213f 1489 8bbc bbaf 21be 3aeb 4d3d
000003f0: aa75 c13e fc32 83c1 5b9d 64bd 69d5 cabe
-0.31921226 -0.056568947 -0.0447865 -0.0639137 0.083539486 -0.28250742 -0.56786 -0.08294092
-0.12075659 -0.041209146 0.028651124 0.06871907 0.23155329 -16.692045 0.2769952 -0.3974203
-13.20882 -0.03593584 0.14566259 -0.030575108 -0.010424213 -0.24175458 -0.5086289 -0.07385786
-0.09082494 -0.28932664 -0.06459978 -0.033631057 0.69908386 0.039565586 0.22191691 0.15853527
-0.9280835 -0.033277962 -0.032107145 0.74095136 0.01333916 0.96331316 -0.16046493 0.32459933
-0.2129271 -0.11039948 0.42812517 -0.03538963 -0.027837101 -0.08957675 -1.0560529 0.2532425
0.57852525 0.027596528 -0.16650888 -0.12057464 0.7898516 -0.9390337 -0.89819443 -0.10135576
0.27547827 -0.06405484 -0.22158702 0.12759227 0.24248679 -19.226551 -0.0014855161 0.5789288
-6.057317 -0.047484756 0.21267869 0.04292125 0.031736758 -0.36903974 -0.58308053 -0.06574881
-0.016671667 -0.28905255 -0.12871 -0.05770487 -0.5478972 0.052235287 -0.14321521 0.3730215
0.23493741 -0.0492601 0.21220326 1.1212734 0.0090169115 1.480848 -0.11938233 0.52235305
-0.3593346 0.056044687 0.51386815 -0.04152559 0.006103511 -0.061661646 -1.5188704 0.23776221
-0.22430454 0.09893986 0.0326789 -0.007398002 -0.9092208 -0.79522806 -0.42604408 -0.020221261
0.42546716 -0.007557963 -0.24103712 0.04735213 0.047302034 -16.73732 -0.23617448 -0.0913139
-14.834581 -0.0091343885 0.10592303 0.081865326 -0.05756035 -0.2327127 -0.17137429 -0.023746783
-0.035568666 -0.060615364 -0.060230117 -0.011744459 -0.1222142 0.04370231 -0.06369602 0.053621043
0.76966214 -0.031218173 0.23507111 0.42834994 0.009458839 0.671182 -0.00413554 0.07660452
-0.22118379 0.03928493 0.031202165 -0.026561903 -0.10282504 0.0054888455 -0.67396045 0.03591083
-0.64998615 -0.3040081 -0.25206363 -0.20423406 -0.15445146 0.41199616 0.6828965 -0.12238692
-0.12554668 -0.090588935 -0.040564615 0.12811644 0.623818 -15.169624 0.06879446 -0.8860691
-14.175687 -0.036061443 0.34904072 -0.5034091 0.17727411 -0.25410178 -0.4673318 -0.11059484
0.09654323 -0.26397535 -0.08642661 -0.06874429 1.2410785 -0.12573612 0.2973225 0.5534072
-0.3201616 -0.030694894 -0.058225457 1.2496754 -0.023736563 -1.6011208 -0.13409796 0.3650107
0.13053818 0.46648672 0.4127659 -0.037453376 -0.53115815 -0.27956206 0.94909865 0.2848124
0.9423574 -0.1907673 -0.7304934 -0.60156804 1.7711871 0.30267394 0.644692 -0.15379374
0.47173283 -0.110328235 -0.22221091 0.16270025 0.8601305 -3.3925543 -0.014741504 1.1507345
-6.997509 -0.052959282 0.4794309 -0.844894 0.53325963 -0.38966206 -0.54073256 -0.10327465
0.31253695 -0.21740036 -0.14350483 -0.2133408 -1.2085646 -0.2732704 -0.17646608 0.8753066
0.22819798 -0.041730553 0.42668766 1.8550166 -0.043808542 -2.546082 -0.12710302 0.37614474
0.18628983 1.0250564 0.53357816 -0.03876916 -0.6527473 -0.29984477 1.4695188 0.3155852
-0.39830765 0.072288 -0.3605185 -0.40243867 -1.6811157 -0.16018467 0.20057514 -0.044418238
0.6309912 -0.017033137 -0.15789692 0.050273158 0.37785083 -16.399895 -0.05581413 -0.39615944

model_1/block_1_project_BN/FusedBatchNormV3 f4 [8]
00000000: dd6d 5ec0 ec1f c7c1 50eb ab41 5928 0342
00000010: cc95 9abf 19fe adc0 ccb6 1942 8806 b33f
-3.4754555 -24.890587 21.489899 32.789402 -1.2076964 -5.437268 38.428513 1.3986368

model_1/block_2_depthwise_BN/FusedBatchNormV3;model_1/block_2_depthwise/depthwise;model_1/block_3_depthwise/depthwise f4 [1, 3, 3, 48]
00000000: 898e 643d b6e4 04bd f8d6 283e 582b 9f3f
00000010: 3bed cb3c e272 bf3e b78b 73bd b8bb 1f3e
00000020: 26ea da3d 94cc 8d3d 67fd b03c 0ada a53d
00000030: 0d56 eebd e307 dfbd 18c5 01be e6c4 3d3d
00000040: b658 27bc 68ce a23d f71b 98bd 4a3b 32bf
00000050: d876 adbd 24cc 64be b3ad 893f 5a95 c0bc
00000060: e1b5 adbc 3590 0a3d 6cc9 2ebe e2ed 4a3d
00000070: 5dce b6bc 34a1 2a3c 1f40 523d c6b6 583f
00000080: ff98 e73e bf8b 5a3e fb1e a33e 793c 0fbe
00000090: c6cc ba3c 1818 853e 21b8 4a3c 9cf1 a53b
000000a0: 8893 8e3d fcb1 13be ceac 3fbd f10d bdbd
000000b0: 8251 b93d 0ce5 813b 2700 21bd d54e 34bd
000000c0: 209d e13f f4a0 e03d 0254 fd3d 5b12 bdbf
000000d0: fc3d 1b3e aac6 cb3e b4d4 273e dc18 7f3d
000000e0: f893 2b3f e3b3 473f 7d93 453c dc35 be3e
000000f0: 30e7 04bf d717 93be 9c6a bb3c a160 343d
00000100: d33f 8b3f 82f3 0cbf ecd5 46be c168 b2be
00000110: 45d6 89bf ab5f a33e ab10 6dbf 9ab4 883d
00000120: 546f ff3d 4578 d83e bb0a 46bf 90e4 e0be
00000130: 3149 0a3e 92fb 2c3e 0ae5 023d cab9 87bf
00000140: b011 453d ddbb ecbe 4370 833f d84f ae3d
00000150: 88d0 f4be 0db1 b1be c63f 24bd 294b dd3d
00000160: 4f14 bcbe 09f3 5cbe af57 29be dbff d138
00000170: 8325 56be 3283 0dbd a115 6fbf a139 003e
00000180: 2d18 02bf 9537 e0bc fdf5 6e3d 7e17 213e
00000190: af6c 493a 64c5 973e 8798 b33d fd96 c73d
000001a0: b6f1 2e3e 09d5 7d3d 2481 77bd 2559 8c3e
000001b0: afc9 32be a226 3abd 39a1 443d b625 b83c
000001c0: f09a 60bf a6d0 903e e9c4 27ba bd29 fb3e
000001d0: 7cbd b9be f9d3 e6bd d77d 1dbe 415c 13bc
000001e0: 1657 04bd 60b0 bbbe 62f4 78bd 71e8 223e
000001f0: b2a9 d0bd 9843 9d3c 1dc8 923c 98d5 38be
00000200: 4a2c fd3d 7ca2 39be 106c 0b3e 09d9 bfbd
00000210: 78d6 5a3c 1969 ba3e 78c5 023f 23b9 03bc
00000220: 9c8d 5f3e 7666 a13d c92d 99bd fe60 ad3d
00000230: 7cb2 89be 6c86 a73b 8bae e7ba 5b6d 13bd
00000240: adfe de3f 24bb ae3d a040 eebb 91a3 91bf
00000250: 924b 9b3d 4fed f6bd c570 2e3f 8cd9 abbd
00000260: a280 933d 04f2 8f3d 8e50 59bd 533e e83e
00000270: f467 a7bd 7952 ccbc b58c 523d d8c2 2fbe
00000280: 1dad e53b d18a f9be 5e13 48be 08d9 fdbe
00000290: a5dd ab3d c953 57bf 21a6 85bf c32c 76bd
000002a0: 2451 0e3d 1248 153f 8ce4 aebe 3928 29bf
000002b0: 12e8 40bd 9be0 963e ce31 363d 067d 6cbf
000002c0: 4767 bf3e 3780 cfbe 081b 3abc 7455 453f
000002d0: 3d7e 19bd 5517 e33e a6ed e7be 7faf 183d
000002e0: 18e8 94be bd79 8bbe 1c02 4e3e 4176 3ebf
000002f0: 9038 91be fea2 43bd 9d9a b4bd 18a1 94bc
00000300: ef3e bf3e 210b bdbf 6fa2 88bf b6f4 a73f
00000310: 6959 2bbf a18b 10bf ac78 24c0 909f 2dbf
00000320: 229f 22bf b2bb 10bf d7cf df3e 6388 82bf
00000330: ec86 973f cb89 b13f 35a6 e13d dfae 29bf
00000340: 8bc7 33bf 3054 a03f 5287 dd3e efc4 29bf
00000350: ee1a a53f 4008 bb3f f28c 723f dae3 ed3e
00000360: 37b6 723f 0ef1 42bf e3f4 3cc0 a0d6 223e
00000370: 79fb 43bf 7f89 a2bf 64bf ab3e 8a65 8d3f
00000380: ff52 53c0 2971 7b3f 58f9 64be 0b84 69be
00000390: b723 ca3f 4a47 72bf dde1 ba3f 13f2 e03d
000003a0: c702 123f e64f 36be 4897 363f de4a 833f
000003b0: 0034 473f 727c dfbe e645 433f 5aca 0e3f
000003c0: 9b7d 343f 0c2c 963d e0ea cc3e 3268 20be
000003d0: 22e7 f93c 9bda 89be e6ab 6b3f a4e9 cd3d
000003e0: 48ba c7bd 02bb c53d c7e0 c2be c985 45bd
000003f0: e01a f5bc 6fbd edbe f8ae bb3e b85b bf3c
0.055799995 -0.03244468 0.16488254 1.2435102 0.024893394 0.37392336 -0.059459414 0.15598953
0.106891915 0.06923786 0.021605207 0.08098228 -0.11637507 -0.10890176 -0.12672842 0.046330355
-0.010214021 0.07949525 -0.07427209 -0.6962172 -0.08469933 -0.22343498 1.0756134 -0.023508716
-0.02120489 0.033828933 -0.17069024 0.04954327 -0.022315199 0.01041441 0.051330682 0.8465389
0.45233914 0.21342371 0.31859574 -0.13987912 0.022802722 0.25994945 0.012373001 0.0050642025
0.06961733 -0.14423364 -0.04679566 -0.09231175 0.090487495 0.003964072 -0.039306786 -0.044020493
1.7626076 0.10968199 0.12369539 -1.4771227 0.15160364 0.39800006 0.16389734 0.062279567
0.6702266 0.7800886 0.01205909 0.37150466 -0.51915264 -0.28729126 0.022877984 0.044037465
1.0878853 -0.55059063 -0.19417542 -0.34845546 -1.0768515 0.31908926 -0.9260356 0.06675072
0.12472406 0.42279258 -0.77360123 -0.4392438 0.13504483 0.16892841 0.03195671 -1.0603573
0.04811257 -0.46237078 1.0268635 0.08511323 -0.47815347 -0.34705392 -0.04009988 0.10805351
-0.36734244 -0.21577086 -0.16537355 0.000100135534 -0.20912747 -0.034548946 -0.9339238 0.12521984
-0.5081814 -0.027370254 0.05834006 0.15731618 0.00076837366 0.29642785 0.08769327 0.097455956
0.17084393 0.061970744 -0.060425892 0.27411762 -0.17459749 -0.045447 0.048005316 0.02247892
-0.87736416 0.28284186 -0.00063998863 0.4905528 -0.36277378 -0.11270899 -0.15380035 -0.008994163
-0.032309614 -0.36658 -0.060779937 0.15908982 -0.10188617 0.01919727 0.017917687 -0.1805023
0.12361963 -0.18128389 0.13615441 -0.09367568 0.013356797 0.36408308 0.51082563 -0.0080397455
0.21831363 0.07880871 -0.07479436 0.084657654 -0.26893985 0.00511246 -0.0017675919 -0.03599296
1.7421471 0.08531788 -0.0072708875 -1.1378042 0.07582773 -0.12056982 0.6814082 -0.08391103
0.07202269 0.07028583 -0.05305534 0.4536005 -0.08174124 -0.02494167 0.05140372 -0.1716417
0.007009162 -0.4873872 -0.19538638 -0.49579644 0.08391885 -0.8411222 -1.0441324 -0.06010128
0.03474535 0.58313096 -0.34158742 -0.66077 -0.04709632 0.29468235 0.04448109 -0.9237827
0.37383482 -0.40527508 -0.011358984 0.77083516 -0.037473906 0.44353738 -0.452985 0.03727674
-0.29083323 -0.27241316 0.20117992 -0.7439919 -0.28363466 -0.047762863 -0.08818553 -0.018143222
0.37352702 -1.4769021 -1.0674571 1.3121555 -0.66933304 -0.56463057 -2.5698652 -0.678216
-0.6352407 -0.565364 0.43713257 -1.0197872 1.183805 1.3870176 0.110180296 -0.6628246
-0.70226353 1.2525692 0.43267304 -0.6631612 1.2898843 1.4611893 0.94746315 0.464629
0.9480929 -0.7614907 -2.9524467 0.15902185 -0.7655559 -1.269821 0.33544457 1.1046612
-3.3019407 0.98219544 -0.22360742 -0.22804277 1.5792149 -0.9464003 1.4600178 0.10983672
0.5703549 -0.17803916 0.71324587 1.0257223 0.7781372 -0.43649632 0.7627853 0.55777514
0.7050416 0.0733262 0.40022945 -0.15664747 0.03050572 -0.26924595 0.9205917 0.10054329
-0.09752327 0.096548095 -0.38062117 -0.04822329 -0.029920042 -0.4643359 0.36656928 0.023359165

model_1/block_2_project_BN/FusedBatchNormV3 f4 [8]
00000000: d347 d2c1 e8c5 5e41 ebb2 b0c1 af8c 39c1
00000010: 45b5 9641 28e8 4c41 0a8f 7a41 1ba6 0642
-26.28507 13.923317 -22.087362 -11.596847 18.83851 12.806679 15.659922 33.662212

model_1/block_3_depthwise_BN/FusedBatchNormV3;model_1/block_3_depthwise/depthwise f4 [1, 3, 3, 48]
00000000: c989 8f3e 21b3 1ebe f8ab 663f 1bc1 d13d
00000010: 9a95 bd3e 81bd b9bd e6ef 253f bdf1 b9be
00000020: a632 043e bb8c 22be fd52 22be d2e1 233e
00000030: bfc9 e83d a238 55bd 96fa 03bf 4db6 4abf
00000040: d537 343f 20ce 843e 0453 873e b7e0 bc3e
00000050: 0bfd 663e 2ed4 c5be 32bb b0be 2595 8c3e
00000060: 9d43 2cbe 0a68 3cbe f77b 96bd 95eb 5ebe
00000070: 7078 26bf 7d73 833e 8b50 a7be 9d17 17bf
00000080: 199a b1bc e350 153e ec86 a03d 8870 0a3e
00000090: 2aa3 81be 10dc 573e 1a66 8cbe 4e3f bbbd
000000a0: 36e0 553e 7f1c 4fbe e13e 5a3e 240a 903e
000000b0: 8fee edbd 449d 983d b6c8 5d3e 6494 0bbd
000000c0: b510 a73e eceb 1bbe c02e 933f 49f3 fe3d
000000d0: eb24 11bf 9f42 47be 31e1 c2be 79c7 e7be
000000e0: 20c8 583e 3fd1 46be 3210 07be 709a 833e
000000f0: 3b62 233e 3147 08be 804f 28bf 9dbd 3f3f
00000100: ad70 80be 5e29 983e 3383 053f d70f 183f
00000110: e72e 8d3e 198e 18bf 194e 683e dbca be3e
00000120: a1b8 78be 0d41 a8be 86b9 95bd 23d2 8dbe
00000130: 8438 023f a995 a03e abed 2bbe 3fd9 2dbf
00000140: 562e f3bd 2150 9f3e 85c9 b83d fa15 353e
00000150: 64b0 9dbe f976 a03e 9172 e4be dd4c 5ebd
00000160: c323 a03e f129 75be 315f 953e 980a b93e
00000170: 4b41 c2bd f78e 60bf a293 873e 44e7 febd
00000180: 4ab2 f83d 2394 aabd 4fc7 1d3f 3f1a 623d
00000190: 7b0e 173e 5b21 05be ec49 9cbe 4e71 53be
000001a0: 0d49 c43d 93aa 74bd 0db4 8e39 c9a0 e03d
000001b0: eef4 813d 0902 dfbd baaf c2be 92df a7bc
000001c0: 816e b1be 3b0b fd3d 386c 4a3e 7ebb b33e
000001d0: 0864 d73d d3d6 8bbe e12b 113e df13 063e
000001e0: c44a 0fbe d566 45be 73ca 34bd cbd7 8fbd
000001f0: 73ae b63e 7ef0 ec3d 7157 eb3e 1370 00bf
00000200: f994 d8bd 31ba 1f3e ea79 1d3d 96e7 a23d
00000210: 690e fdbd 775d 223e 036d 44be f57a 31bd
00000220: 6c0e 2f3e b741 e9bd 24eb 133e f756 4e3e
00000230: 63c5 b1bc 8e4d 8bbd 70e5 cf3d 21d4 bebd
00000240: 2366 c33e 9148 39be 24e3 babe f37a 023e
00000250: 875d c13e d2d4 83be b98d 4c3f bc2c edbe
00000260: 1887 3f3e 6e31 48be 2f42 f8bd 20f2 933e
00000270: 08f0 293e 6df4 10be bee3 f3bd afef 8dbf
00000280: 2be2 603f 29ec a93e 2da2 e93e a835 4fbe
00000290: df99 893e eb45 073f f1b9 0dbf 89f8 c13e
000002a0: ca02 a33e 8fd5 a1be ad36 c0bd a661 b0be
000002b0: c2d7 a0bf eff1 b43e 0ec6 aebe 63f8 aabc
000002c0: bf5e e2bd c517 7b3e cf5e f93d 27e8 503e
000002d0: 4794 a9be 1134 953e 9008 dbbe 737c ae3e
000002e0: 2830 a63e 7f0a 88be 4b19 a13e f2a5 be3e
000002f0: f043 dfbd 19c3 413f 6f87 8a3e cd7f dabd
00000300: c0c9 f13e 13f2 4dbe d766 1cbf a60d 3e3e
00000310: 7011 65bf 9321 c7be a587 11bf b0bd 2dbf
00000320: becf 8d3e 9ceb 61be 080b 7bbe 5f98 e13e
00000330: d890 823e 4636 1fbe f705 17be 8ac6 473f
00000340: ac69 e4be c1be d93e cd53 4b3f d036 72be
00000350: 9ee4 cf3e bc1e 1f3f 71bc 903e 558f 263f
00000360: 7d1f 113f 6226 07bf c7b0 03be 36de dcbe
00000370: dfb5 fc3e d2c9 023f fc59 1ebe a52a df3d
00000380: b1d2 2abe d8f4 ec3e b8bc 143e a673 8d3e
00000390: 3aa8 fcbe aba0 023f f6c7 2ebf 66be f83e
000003a0: f9a5 023f 58d5 acbe 4d72 db3e a05a 073f
000003b0: e134 2abe cead 8bbd 3b6d c33e de09 20be
000003c0: 74b7 843e 71e9 f2bd 0c3f afbe 7d3e cc3d
000003d0: b3c5 8a3e 4b9a 43be 73f3 a0be 7d6d b9be
000003e0: 1a76 f93d 7a43 b2bd 8567 f3bd 4957 4f3e
000003f0: 82dc c73d 1754 7fbd c994 febd deef 613d
0.2803481 -0.1549802 0.90106153 0.1024191 0.370282 -0.09069348 0.6481918 -0.36317244
0.12909946 -0.15873997 -0.1585197 0.16004112 0.11366605 -0.052055962 -0.5155424 -0.7918442
0.7039769 0.2593851 0.26430523 0.36890194 0.22557466 -0.38638443 -0.3451782 0.27457538
-0.16822667 -0.18399063 -0.07347863 -0.21769555 -0.65027523 0.25674048 -0.32678637 -0.59020406
-0.021679925 0.14581637 0.07838234 0.1351949 -0.25319797 0.21080041 -0.27421647 -0.09142934
0.20886311 -0.20225714 0.21313049 0.28132737 -0.11617767 0.07451871 0.21658596 -0.034077063
0.32629934 -0.15226716 1.1498642 0.12448747 -0.5669696 -0.19459008 -0.38062432 -0.45269373
0.21170092 -0.19415759 -0.13189772 0.25703764 0.1595544 -0.13308407 -0.6574631 0.748987
-0.25085965 0.2971906 0.5215332 0.5939917 0.27574846 -0.59591824 0.22686042 0.3726414
-0.2428918 -0.3286213 -0.073107764 -0.27699384 0.50867486 0.31364182 -0.16789882 -0.67909616
-0.11874072 0.3111582 0.09022812 0.17684165 -0.30798638 0.3134077 -0.44618657 -0.05427252
0.31277284 -0.2394178 0.29174188 0.36140895 -0.0948511 -0.8771815 0.26479822 -0.12446454
0.12143381 -0.08329036 0.61632246 0.05520081 0.14751618 -0.13001005 -0.30525148 -0.20648691
0.09584246 -0.059732985 0.000272185 0.10968167 0.06345545 -0.1088906 -0.38024694 -0.020492349
-0.3465462 0.12355658 0.19767845 0.35103983 0.10517126 -0.27312335 0.14176895 0.13093518
-0.13993365 -0.19277509 -0.044138383 -0.07023581 0.3567997 0.11569308 0.4596515 -0.5017101
-0.10575289 0.1559837 0.038446344 0.07954328 -0.12356264 0.15855967 -0.1918221 -0.04333015
0.17095345 -0.11389487 0.14445168 0.20150362 -0.021700567 -0.06801902 0.101511836 -0.09317804
0.38163862 -0.18094088 -0.3650142 0.12742214 0.37766668 -0.25748307 0.7990375 -0.46323192
0.18703878 -0.19550106 -0.121219985 0.28895664 0.16595471 -0.14155741 -0.11908673 -1.1088771
0.87845105 0.33187988 0.45631543 -0.20235312 0.26875207 0.5284106 -0.5536185 0.3788493
0.31838065 -0.31608245 -0.093854286 -0.344495 -1.2565844 0.3534083 -0.3413548 -0.020870393
-0.11053228 0.24520786 0.121762864 0.20401059 -0.3312094 0.29141286 -0.4277997 0.34079322
0.32458615 -0.26570508 0.3146461 0.3723598 -0.1090163 0.7568832 0.27056453 -0.10668907
0.47224236 -0.20111875 -0.6109442 0.18559894 -0.8947973 -0.38892803 -0.568476 -0.67867565
0.27697557 -0.22062534 -0.24515927 0.44061562 0.25501132 -0.15548047 -0.14748369 0.7803732
-0.4461187 0.42528346 0.79424745 -0.23653722 0.4060411 0.6215627 0.2826877 0.6506246
0.5668867 -0.5279294 -0.12860404 -0.43138283 0.49357507 0.51089203 -0.15464014 0.10896806
-0.16681935 0.4628055 0.14525115 0.27627295 -0.49347097 0.5102641 -0.68273866 0.48582762
0.51034504 -0.33756518 0.42860642 0.5287266 -0.16621734 -0.0682026 0.38169274 -0.15628764
0.25921214 -0.11860932 -0.34227788 0.09972856 0.27103958 -0.19101827 -0.31435737 -0.36216345
0.12180729 -0.087042764 -0.11884979 0.2024814 0.097588554 -0.062336054 -0.12430722 0.055160396

model_1/block_3_project_BN/FusedBatchNormV3 f4 [16]
00000000: d695 b3c1 073f f83f bff4 0bc0 169b fcc0
00000010: 8a3a 23c0 1b44 1a3e 50ef a8bf ba7b afc1
00000020: 497a 88c0 f46a 2b41 6db8 b041 1b3f ccc0
00000030: 4169 6a3f 820b c9c1 34f1 bb41 e4fc b9c1
-22.448162 1.9394234 -2.186813 -7.8939314 -2.550448 0.15065043 -1.3198032 -21.935413
-4.2649274 10.713612 22.090052 -6.3827033 0.91566855 -25.13062 23.492775 -23.248482

model_1/block_4_depthwise_BN/FusedBatchNormV3;model_1/block_4_depthwise/depthwise;model_1/block_6_expand/Conv2D f4 [1, 3, 3, 96]
00000000: 9909 eabd 9316 bb3c ba6c 2ebe 1627 523e
00000010: 8179 d2bd da33 023e e7f3 1abf 8ded 57be
00000020: 362c e53d 19c7 98bd 67bd 373f 38f1 20be
00000030: f885 2e3c 452e 10be e778 96bc de5c a33e
00000040: 8647 983c f10f 403e 210e c8bd 0cb0 a03d
00000050: 2021 223e d47e e83c 0859 183e cdb7 fbbe
00000060: d3f2 453b 0e74 203e d43a 3e3e cd4c e13e
00000070: a052 823d b825 4f3d 2911 af3d c6bb 9f3e
00000080: 99a7 d8bc f7d5 e73d 53ba f33d 83d4 99bd
00000090: 008d 2e3d 6e82 7e3e edfe 02be 6edc 4bbe
000000a0: 6ea4 123e 1a63 c23d 2fe5 d43e 9445 ab3d
000000b0: aa3e 0ebf b3ca f8bd b210 723e b6ef afbc
000000c0: 740d 05bd a6a4 1ebe d368 50bd 7770 28bd
000000d0: c80a f73e 44f6 3c3d e36d abbd f6a4 463d
000000e0: 4ef8 753c 569b 92be d019 e73d b00b e3bd
000000f0: 6168 9d3e 68b1 30bd cc50 cd3f 0de7 0a3e
00000100: b97d 1ebe 90c9 c7bd b3e1 383d 1afa d5bd
00000110: 9b20 503f 1005 c23e 19f6 053d 07e7 aabc
00000120: c155 1c3f cfb6 2fbe fef4 de3e 5712 b33d
00000130: 8083 973e 033c 9abe 9ef8 a43e eed3 263f
00000140: f4da b63c 8c15 013f 3c38 493f db5c 46bd
00000150: d8ff 6a3e e225 f73d 3da0 eebd c8dd 15be
00000160: 52a3 5c3e e4b2 a4bc d45f f9bd 1d4d f43e
00000170: eddd c93c 2e0b b93e 17fb f8bd 2a5b 5a3d
00000180: f528 adbe b8f9 433d c96c 56bd 2bf3 b03c
00000190: 6ce1 b23e 8c66 80bd c8dc 60bd b8f6 f5be
000001a0: f118 7a3e e55c 9e3e 35f5 69bf 6812 cbbd
000001b0: ae6b 52bd 9e6b 4cbe abcc cc3c b64f 183f
000001c0: 3a42 9b3d 65bf afbe 9966 d2bc f883 45be
000001d0: 6dfe 3a3e 828a 35bf 09a3 1a3f 1414 853e
000001e0: 9249 04bf a00f 97be bef5 1abf 86f0 e6bd
000001f0: 860d 083e e2aa c73d 0322 4abe 98c1 013e
00000200: 8dde 0c3f 52f9 2e3d 71bb 08be bd02 363c
00000210: d9fa eabe a27b 2d3f b54f 2fbe 50be 72bf
00000220: 3765 3b3d 567e 62be d4cb a0be c3e9 653d
00000230: 1a91 b63e a872 76be 97d1 963f 3d31 a4be
00000240: 625c 85be 16a7 be3e 0498 b83e 7268 443d
00000250: 0ef3 bd3e 1087 35bf c311 b83e e460 3b3f
00000260: 5740 a93e 092b e43e 5b69 f9be 35ba 803e
00000270: 297e de3f cc9a 213e bda8 913d 9a68 b9bd
00000280: 55cc c53e 97af 8cbe d42f a2be b1b0 5f3b
00000290: cbc2 f43e 1816 c1be 7d20 cabd e3aa 4e3e
000002a0: aa93 93be 9ec2 8dbe 8383 2f3f c3c5 91bd
000002b0: 9d2f 23bf ae36 12be a741 c1be 098a 1b3f
000002c0: 109a 01bf 0104 0b40 7f86 adbd 5739 703d
000002d0: bc16 97bd 5b29 3e3e 89b0 9c3e 85bc c4be
000002e0: d34a 55be 3e78 873e a14b efbd f906 dc3e
000002f0: c0f5 4fbf 0b03 2abf 55f3 a83f 1fa0 efbe
00000300: e2ef c83c 76bc a3bc 4632 60be 8649 18be
00000310: db32 863d a264 c83d 9170 ca3e 6e0a 903d
00000320: 7295 3cbd 0d81 633c 6573 683d 5080 463f
00000330: 0c1a 193b d87f 27be 674a 85bd 2e3c 8c3c
00000340: f996 47bd c90a 663e e84f d4bc c6e8 2d3e
00000350: c339 443c 1df7 173e 6c86 dc3d eaca f4be
00000360: 98ff 163c 42e3 8fbe 12a0 7b3d fc99 9a3d
00000370: 9dce 27bd 9569 253c 527f 2b3e 1ce5 08bf
00000380: 3d43 6d3e dc6a 5c3d c30d cf3d 9ff2 0cbe
00000390: efa2 453e 8eb2 7a3c e0d3 6ebd 05f9 39be
000003a0: 93f8 223d a85f c73c 021e 26be 4952 de3c
000003b0: 2491 553e 68cb 99bd e2b1 503e da05 293c
000003c0: a5fc 0f3d 49bf 7fbd c9fc 0c3d 7e5d 7abc
000003d0: b42f 7e3d 1b5c 703d d5bf 8bbc 7129 103e
000003e0: dc3c 4cbc df60 eb3e 6bb2 4b3d da97 b9bb
000003f0: 9f77 aa3d 2303 c8bd dae1 873c 4ce3 aabd
-0.11427612 0.022837913 -0.17033663 0.20522723 -0.10277081 0.12715092 -0.60528415 -0.21086712
0.11190073 -0.0745985 0.7177338 -0.15717018 0.010652058 -0.1408015 -0.018368198 0.3190679
0.018588793 0.18756081 -0.0976832 0.07846078 0.15832949 0.028380789 0.14877713 -0.49163666
0.003020455 0.15669271 0.18577129 0.44003907 0.06363416 0.05057308 0.08548195 0.31197947
-0.026447104 0.113201074 0.11900773 -0.075112365 0.042614937 0.24854442 -0.12792559 -0.19908306
0.14320537 0.094915584 0.41581103 0.0836288 -0.5556437 -0.12148037 0.23639181 -0.021476608
-0.032483533 -0.15492496 -0.05088122 -0.04112288 0.48250413 0.046133295 -0.083705686 0.048497163
0.015012814 -0.28634137 0.1128422 -0.110862136 0.30743697 -0.043137938 1.6040282 0.13564701
-0.15477647 -0.09755242 0.04513712 -0.10448094 0.8129975 0.37894487 0.0327054 -0.020862116
0.6106835 -0.1715958 0.4354629 0.087437324 0.29592514 -0.3012391 0.3222093 0.6516713
0.022321202 0.504235 0.7860143 -0.048428398 0.22949159 0.120677724 -0.11651657 -0.14635384
0.21546677 -0.020104833 -0.12176481 0.47715083 0.024641955 0.36141342 -0.121572666 0.053309597
-0.3382031 0.047845572 -0.05234984 0.021600327 0.34937608 -0.06269559 -0.054898053 -0.48039794
0.24423577 0.30930248 -0.9138978 -0.0991562 -0.051372223 -0.19962928 0.024999937 0.5949663
0.07580991 -0.3432571 -0.025683688 -0.19288623 0.18261118 -0.7091447 0.6040502 0.2599188
-0.5167476 -0.29504108 -0.6053122 -0.11276345 0.13286409 0.0974939 -0.19739537 0.12671506
0.55027086 0.04271824 -0.13352753 0.011109051 -0.45894507 0.67766774 -0.1712025 -0.94821644
0.045750823 -0.22118506 -0.3140551 0.056131136 0.3565758 -0.24067175 1.1782712 -0.32068816
-0.26047045 0.3723685 0.3605348 0.04795117 0.370995 -0.70909214 0.3595105 0.7319472
0.330569 0.44564083 -0.48713192 0.25142065 1.7382251 0.15781707 0.071122624 -0.09053154
0.38632455 -0.27477714 -0.31677115 0.0034132416 0.47804865 -0.3771217 -0.09869478 0.20182376
-0.28823596 -0.27687544 0.68560046 -0.07117798 -0.6374453 -0.14278671 -0.377454 0.607575
-0.50625706 2.1721194 -0.08472919 0.058648434 -0.07377383 0.18570463 0.30603436 -0.3842508
-0.20829324 0.26458925 -0.11684347 0.4297407 -0.8123436 -0.66410893 1.3199259 -0.4680185
0.024528448 -0.019987326 -0.21894178 -0.14871797 0.06552669 0.09784819 0.39539006 0.07033239
-0.04604096 0.013885749 0.056750674 0.7753954 0.0023361472 -0.16357362 -0.06508332 0.01711854
-0.048727963 0.22465052 -0.025917009 0.16983327 0.011976662 0.1484036 0.107678264 -0.4781106
0.009216212 -0.2810307 0.06143195 0.075489014 -0.040968526 0.0100959735 0.16747788 -0.53474593
0.2317018 0.053812847 0.10110047 -0.13764428 0.19300435 0.01530136 -0.05830753 -0.181614
0.03978784 0.024337605 -0.16222385 0.027138846 0.20856148 -0.075095 0.20380357 0.0103163365
0.03515305 -0.062438283 0.034420762 -0.015281079 0.062057212 0.05868159 -0.017059246 0.14078309
-0.012465682 0.45972344 0.0497307 -0.005663854 0.08323597 -0.09766223 0.016587187 -0.08344135

model_1/block_4_project_BN/FusedBatchNormV3 f4 [16]
00000000: bc69 6bbe 5326 be3e 7e19 2fc0 2991 bc40
00000010: 901b 0640 bb92 46bf 89ca 383f 45a9 efbf
00000020: b904 9e3f 93ef b0be 6f19 8540 3498 6f41
00000030: 3e56 d7bf 4e62 cf40 e1a4 3441 e6bc 37c0
-0.22989553 0.37138614 -2.735931 5.8927197 2.0954323 -0.7756764 0.72184044 -1.8723532
1.2345191 -0.3455778 4.1593547 14.974659 -1.6823194 6.48075 11.290254 -2.8709044
